Algoritmo/classificador_semaforo/cnn/model.pth (torch, 104322 bytes, 24 tensors)

batch_norm_input.weight f4 [3]
000000 41 a6 7f 3f 59 85 80 3f 0b a7 6d 3f
       0.9986306 1.0040694 0.9283301

batch_norm_input.bias f4 [3]
000000 c1 0f ac bc 47 3f 46 3b 6b 7b 96 bd
       -0.021003606 0.0030250119 -0.07347759

batch_norm_input.running_mean f4 [3]
000000 bf ab 4a bf ca 39 38 bf 89 71 08 bf
       -0.79168314 -0.7196318 -0.5329824

batch_norm_input.running_var f4 [3]
000000 98 e0 93 3f 17 d1 87 3f 1f 7b 62 3f
       1.1552916 1.0610684 0.8846912

conv1.weight f4 [16, 3, 3, 3]
000000 46 90 9e bd 48 8a ae bc 6f 7c ab bd 36 f9 5e 3b
       -0.07742362 -0.021306172 -0.08373343 0.0034023053
000010 b5 e6 2c be fe 3b ea bd 64 3c 57 3d 1a 2e 31 3e
       -0.16884883 -0.11437224 0.052547827 0.17302743
000020 81 03 5a 3d 1d 90 3e 3e 52 bf af bc 75 1d 09 3e
       0.053225998 0.18609662 -0.021453533 0.13390143
000030 c7 04 11 3e 61 01 c8 bc 48 00 2d be 58 7f 13 3d
       0.14161979 -0.02441472 -0.16894639 0.036010116
000040 dc ef 06 3d b5 f2 34 be bf ef 74 bb f7 07 ed bc
       0.03294359 -0.1767071 -0.0037374345 -0.028934462
000050 10 03 34 be 58 c6 67 bc c3 56 86 3b 1a 0f 90 bd
       -0.17579293 -0.01414641 0.0040996983 -0.070341304
000060 df 7b c1 bb a4 f4 ce 3c c6 30 0f 3e 91 9e 3b 3d
       -0.005904659 0.025263138 0.1398345 0.045805518
000070 41 0b a1 3d 5f 3f 23 3e 05 a5 41 be 1f e8 2f be
       0.07863475 0.15942143 -0.18910606 -0.17178391
000080 2b dd 46 be cb 2d a9 bd 0c 22 11 3e 61 c8 02 3c
       -0.19420306 -0.082606874 0.14173144 0.007982344
000090 9c 5b 6e 3e 3c 2f 11 3d 55 40 a2 bd 18 cb d6 bd
       0.23277134 0.035445437 -0.079224266 -0.10487956
0000a0 99 67 25 bd 2d 6b cf 3d 5f c2 c4 bd a3 cf d4 bd
       -0.040382 0.10127864 -0.09607386 -0.10391166
0000b0 d1 c8 56 bd 30 79 56 3e ea 81 dc 3d 04 83 eb bd
       -0.052437607 0.20944667 0.10766967 -0.114995986
0000c0 99 04 e3 bd a0 d2 d2 bd 4f e9 d0 3d 74 76 ba bc
       -0.11084861 -0.1029408 0.1020075 -0.022761561
0000d0 ab 63 2a 3e 2e 6b 48 3d 0f 0a 15 be 34 66 8d bd
       0.16639583 0.04893034 -0.14554618 -0.06904259
0000e0 30 b4 22 bd 82 0c 58 3e 6c 0b 12 3e 65 80 19 be
       -0.03972262 0.21098521 0.1426217 -0.14990385
0000f0 54 e7 74 3e 51 be 9e bd 0b 63 34 3e c2 fb bf 3d
       0.2391637 -0.07751144 0.17615907 0.09374191
000100 15 60 5b 3e 1c 80 bd 3d c2 cf 98 bc 1c 92 1f be
       0.21423371 0.092529505 -0.018653754 -0.1558308
000110 a0 dd 5c 3d 16 4c dc bd ce 5e 26 be 6c f6 cb 3d
       0.053922296 -0.107567 -0.16247103 0.099591106
000120 c2 0c 0e be 1f 73 f8 3d 34 2f a5 bd ff 90 f5 bc
       -0.13872054 0.121313326 -0.08065644 -0.029976366
000130 8d 5b bc bd 26 af bd 3c 28 35 91 3d c8 f3 08 3e
       -0.091971494 0.023154806 0.07090217 0.13374245
000140 80 b7 26 be 41 17 da 3d 0f b8 bf 3d 60 11 4e bd
       -0.16280937 0.106489666 0.09361278 -0.05030954
000150 f6 16 9e bd 51 de 87 be 00 93 20 3c 9d 21 48 be
       -0.07719223 -0.265368 0.0098006725 -0.19544072
000160 63 8f a7 bc d3 2a 32 bc ca ec 06 bd 1d c2 3d bd
       -0.020454114 -0.010874468 -0.032940663 -0.0463277
000170 e1 af f9 ba c6 8a 1c 3c 37 93 79 bd d2 c4 d4 bb
       -0.0019049608 0.009554571 -0.06093141 -0.0064931894
000180 50 79 66 3e 35 01 8b 3e 70 52 2a 3e 96 0b d3 3d
       0.22507215 0.27149358 0.1663301 0.10304944
000190 af 48 02 3e 91 79 ef 3d 40 57 11 be 26 c8 7c 3e
       0.12723039 0.11693109 -0.1419344 0.24685726
0001a0 c5 1d 09 be fe b0 a2 bd 7c 57 a6 3d 7b 56 58 3d
       -0.13390262 -0.07943915 0.08122155 0.05281685
0001b0 73 74 ea ba 3f 37 13 3e bf 1f 52 bd a2 d0 ab bd
       -0.0017887488 0.14376543 -0.051299807 -0.08389403
0001c0 a4 13 6a 3d ab 2b c5 3d 74 50 a8 3d ab 35 03 3d
       0.057147637 0.0962747 0.0821847 0.032033604
0001d0 c7 6d 14 3d 7a 1e db 3d 17 17 f5 3d d0 50 ad bd
       0.036237504 0.10699172 0.11967295 -0.084626794
0001e0 19 ad 62 3c 15 8c e6 bd 1d 1a fc bd ca b3 23 be
       0.013835215 -0.11257187 -0.12309668 -0.15986553
0001f0 2a 4b 04 be ea 71 d7 bd c2 d3 07 be 34 57 01 bd
       -0.12919298 -0.10519774 -0.13264373 -0.031577304
000200 6a 7b 49 3c d7 b5 cc 3c 29 73 d4 3b 20 60 12 3d
       0.012297491 0.024989052 0.0064834547 0.035736203
000210 db fb 52 3d 86 58 de 3d 53 36 e7 bb 9e 33 b1 39
       0.05150972 0.10856728 -0.0070560365 0.0003379853
000220 40 22 08 3e 57 9a a3 bd e4 4f a5 bd d3 eb b1 bd
       0.13294315 -0.07988422 -0.080718786 -0.08687558
000230 c9 3d 4d 3e 9d 43 a3 bd 7d 8a ed 3d fb 7d 13 3e
       0.200431 -0.079718806 0.1159868 0.14403526
000240 77 dc 0b 3e 0a da 17 3e 70 a9 85 bd 04 53 c0 bd
       0.1365832 0.14829269 -0.06526458 -0.09390834
000250 a8 ae 11 be f5 82 1c bd 21 19 34 be fb 7d 8e 3c
       -0.14226782 -0.038210828 -0.17587711 0.017394057
000260 0e 7f 29 3e d8 c5 ca bd f1 db 6e 3d b6 40 a1 3d
       0.16552374 -0.09901017 0.05831522 0.07873671
000270 e8 34 e2 bc 54 44 0d bd 0f 5e 23 bd 4a 19 11 be
       -0.027613118 -0.03448899 -0.039884623 -0.14169803
000280 d0 78 50 3e d7 49 5a 3e a3 ff 84 bd 3c e9 b5 3d
       0.20358586 0.2131723 -0.06494071 0.088823766
000290 98 8a 3c be 71 78 1d 3d f1 11 24 bc 4e 49 20 be
       -0.18412244 0.03844494 -0.010014043 -0.15652964
0002a0 4f f6 19 be 52 3b 58 3d 89 db 59 bd 6c 31 ee bd
       -0.15035366 0.052790947 -0.05318788 -0.1163052
0002b0 b4 50 21 3e 69 46 b5 bd 59 d9 15 3e 2e 24 7a bd
       0.15753442 -0.0885132 0.14633693 -0.06106966
0002c0 11 a6 79 3e 3b cb 59 bd 5f de 9c bd d7 56 05 be
       0.24379756 -0.05317233 -0.076596014 -0.13021408
0002d0 98 e3 4f bd 11 b2 07 be 68 d4 ce 3d 1c 8d 2a 3e
       -0.05075416 -0.1325152 0.10099107 0.16655391
0002e0 bf 32 4c 3e 2d aa 57 3e ce 11 ec 3d 65 1c 13 3e
       0.19941233 0.2106101 0.115268335 0.143663
0002f0 14 60 83 3d c0 cf 2b 3e e0 0c 03 3e 8c 6e cc bc
       0.0641481 0.16778469 0.1279788 -0.024955057
000300 c7 47 f1 bc a2 52 1b 3e 91 44 fe 3d 1b 1e 2f bd
       -0.029453171 0.1516824 0.12415422 -0.04275332
000310 30 a5 5c bd 32 c9 2f 3d 95 cc 7d be 2d b4 e2 bd
       -0.053868473 0.042916484 -0.24785073 -0.11069522
000320 1d f6 89 bd a2 99 af 3c 28 37 79 be 26 51 38 be
       -0.067363955 0.021435563 -0.24337447 -0.17999706
000330 50 21 4b 3e 16 2b 18 be a9 94 0d bb 7d 09 26 be
       0.19836926 -0.14860186 -0.00216035 -0.16214557
000340 24 35 bc 3d b1 f5 e1 3c b5 0c 33 3e 0b 41 d9 3d
       0.09189823 0.027582975 0.17485316 0.10608109
000350 a4 bc 7e bd 73 25 4c 3e 08 e5 b3 3d 27 35 d2 bd
       -0.06219162 0.1993616 0.087839186 -0.10264044
000360 52 66 36 3e 77 9f 2e 3e 87 c8 a3 bc 67 ad a6 3d
       0.1781247 0.17053019 -0.01999308 0.081385426
000370 ab cf 05 be da 49 2f be 8a a4 1c be a1 3c 35 be
       -0.130675 -0.17118016 -0.15297142 -0.1769891
000380 5a 20 da bd 33 03 9e bc 70 32 08 be f3 74 92 bd
       -0.10650702 -0.019288635 -0.1330049 -0.071512125
000390 38 5a 91 bd f7 7b 41 3e 9a c5 df bd 89 13 1c 3e
       -0.07097286 0.18894945 -0.109263614 0.15241827
0003a0 b9 b2 48 3e a8 06 2f 3e d7 03 88 3d 17 ad 09 bd
       0.19599427 0.17092383 0.066413574 -0.033612337
0003b0 0e 6b 35 3d 31 ee ce bc 15 66 0f be fb db 4d bd
       0.04429155 -0.025260063 -0.14003785 -0.050258618
0003c0 cc bb c3 3b 80 f2 62 bb ad d1 21 3d 45 e7 3c be
       0.005973315 -0.0034629405 0.039506603 -0.18447597
0003d0 a1 67 8a bd 71 e8 12 be aa 5e 6d bd 0f 73 47 bd
       -0.06758047 -0.14346482 -0.057951607 -0.048693713
0003e0 fb 51 5c be 83 d2 22 be 7a 3f f7 3d bd f4 f8 3d
       -0.21515648 -0.15900616 0.12072654 0.12156055
0003f0 27 ad 22 3e b3 c6 2f bd a4 14 c8 3d a0 e1 e9 3d
       0.15886365 -0.042914104 0.09769562 0.11419988

conv1.bias f4 [16]
000000 ee 85 82 3d 49 5d 82 3d 74 c1 a6 bc 73 4f 80 be
       0.06373201 0.06365449 -0.020355918 -0.25060615
000010 79 79 48 3e e9 7e ae be 85 35 4a 3d 77 25 d7 3d
       0.19577588 -0.340812 0.049367446 0.10505193
000020 7f e1 59 3c 26 19 ff bd 74 2b 2b be c5 9f f7 3d
       0.013298391 -0.124559686 -0.16715795 0.120910205
000030 54 b0 36 3d 3c e6 19 3e 9b 34 70 3d 3a 42 ad 3e
       0.044601753 0.15029234 0.05864392 0.3383959

batch_norm1.weight f4 [16]
000000 f9 51 52 3f b6 33 6b 3f 04 08 7d 3f 5a 18 5c 3f
       0.8215633 0.9187578 0.98840356 0.8597466
000010 5c 36 7a 3f 19 5c 7b 3f cb 01 6e 3f 84 8d 76 3f
       0.97739196 0.98187405 0.92971486 0.96309686
000020 9a 10 8f 3f e2 36 79 3f 0d 39 73 3f 24 5e 85 3f
       1.1176941 0.9734937 0.9500893 1.0419354
000030 f0 b0 8c 3f 0a f5 5c 3f 3b bc 4d 3f 7b ce 96 3f
       1.0991497 0.863114 0.8036534 1.1781763

batch_norm1.bias f4 [16]
000000 8b 67 44 3e 12 3a 7d be c8 91 93 be 82 28 ac 3e
       0.19180124 -0.24729183 -0.2882216 0.33624655
000010 d9 c3 96 3d 19 e9 66 3e 4f 85 04 3e ee 4f 1c 3d
       0.07361574 0.22549857 0.12941478 0.038162164
000020 8a b0 55 bc a4 e8 cf bd dd 4b fa bd 69 70 b9 bd
       -0.0130425785 -0.101517946 -0.12221501 -0.09054644
000030 a6 78 d0 bd 58 7c ef bd 43 79 4e bd 78 1f 49 be
       -0.10179262 -0.116936386 -0.050408613 -0.1964091

batch_norm1.running_mean f4 [16]
000000 7f 38 6a 3e e5 57 5c 3e 97 88 0c 3e df b2 30 3e
       0.22873114 0.21517904 0.1372398 0.17255734
000010 bc 9b 89 3e db 4b fe 3d 7a c7 8e 3e 71 7f 71 3e
       0.26876628 0.12416812 0.27886564 0.23583771
000020 88 65 3a 3e 4c 88 ed 3d bf 10 c6 3d f5 8c a2 3e
       0.18202794 0.11598262 0.09671163 0.31748167
000030 2b 5a 78 3e ac b0 83 3e 24 f8 87 3e 0f 8d 01 3f
       0.24253146 0.25720727 0.26556504 0.50605863

batch_norm1.running_var f4 [16]
000000 b8 f6 32 3d 63 22 76 3d 62 ba 58 3d b3 8a 15 3e
       0.04369232 0.060091387 0.052912124 0.14603691
000010 7e 78 57 3d 6d 84 ac 3d bb 85 52 3e 93 70 f1 3d
       0.052605145 0.08423696 0.20558827 0.1178905
000020 aa 89 2f 3d a6 e6 67 3d 3d 28 22 3d 10 d6 76 3e
       0.042855896 0.056616448 0.039589155 0.24105096
000030 a8 0a 32 3e 82 a1 90 3d de 9f 07 3e 4c 7f e3 3d
       0.17386878 0.07062055 0.13244578 0.11108264

conv2.weight f4 [32, 16, 3, 3]
000000 9a 76 89 bd 62 47 9b 3d 8f a7 cb 3d 83 64 35 3d
       -0.067120746 0.075819746 0.09944069 0.04428531
000010 c1 71 ca 3c e5 76 45 3b 79 c4 94 bd 44 62 17 3d
       0.024712445 0.003013068 -0.07264037 0.036958948
000020 50 2c 14 3d 8d b3 ca bd 67 24 40 bd 2c cc e5 bc
       0.036175072 -0.09897528 -0.046909716 -0.028051458
000030 4a a7 6e bc eb 1b b1 3d ce 5d 55 bc 59 20 c9 bd
       -0.014566252 0.08647903 -0.013022853 -0.09820623
000040 af 9c f9 ba 57 b7 69 bd db 53 d3 3d 5e d9 11 be
       -0.0019043888 -0.057059612 0.103187285 -0.14243075
000050 8b 6b 9e bd 08 6c cf 3d 8e ed 32 3d f3 d7 ee bd
       -0.07735356 0.10128027 0.04368358 -0.11662283
000060 18 f4 19 bd a7 ec 63 bc e4 96 c0 3d b5 4a 09 bd
       -0.0375863 -0.013911403 0.0940378 -0.03351851
000070 91 60 90 bc 9e 03 c6 3d d8 11 83 bc 7a 23 08 3b
       -0.017624171 0.09668659 -0.01599972 0.0020773099
000080 d2 24 2d bb ad 37 b9 bc 95 2f 68 bd 8a c3 f5 bc
       -0.0026419652 -0.022609556 -0.056686003 -0.030000467
000090 2c 39 f8 bd 14 7d 28 be 42 55 d4 bd 11 3e 15 bd
       -0.1212028 -0.16453964 -0.10367824 -0.036436144
0000a0 96 88 8a bd 27 46 1d bd 06 a2 0f 3e 96 62 9f bc
       -0.06764333 -0.03839698 0.14026651 -0.01945619
0000b0 b3 a7 09 3d 6e d9 69 bc 82 e6 cf 3d cd 59 0c bc
       0.033607196 -0.014273031 0.10151388 -0.008566332
0000c0 8a 17 38 bd 78 1f 4b 3d 23 a7 62 3c 28 a4 17 3e
       -0.044944324 0.049590558 0.013833794 0.14808714
0000d0 1b c3 01 bd 8e 8f c8 3c 8c 85 04 ba 17 c5 97 3d
       -0.031680208 0.024482515 -0.00050553004 0.07410639
0000e0 de 75 19 3c 22 99 ab bd 7a 38 59 bc 8b 24 bd bd
       0.009366481 -0.08378817 -0.013258094 -0.09235486
0000f0 b8 8b e7 39 6f a6 7e bd 52 87 98 3d a9 d6 c7 bd
       0.00044163852 -0.062170442 0.07447685 -0.0975774
000100 74 04 cd bd 6d e4 41 be 5a 39 9b 3a 0e a3 ee bd
       -0.10010615 -0.18934794 0.0011842654 -0.11652194
000110 58 62 10 be e7 a7 42 3d ae f0 fc bc 4b 35 57 3c
       -0.14100015 0.047523405 -0.030876484 0.013135265
000120 5f 75 48 bc dc 3b 3a 3d 8e e6 fa 3d 30 69 4e be
       -0.012235015 0.045467243 0.12251006 -0.20157313
000130 3f bf 91 bb bd d6 06 bd 76 9c 40 be 1a 7c a1 3b
       -0.004447847 -0.032919634 -0.18809685 0.004928124
000140 db 5c e3 bd 19 f9 68 3a 5e e8 fa 3d 34 6b 18 3e
       -0.11101695 0.0008887216 0.12251352 0.14884645
000150 68 cb 09 3b 1b e8 12 3d a4 a3 b1 bc 22 df 5a bd
       0.002102578 0.035865884 -0.021684475 -0.053435452
000160 54 27 cb bc f7 5b a9 bd 78 cd 02 be ed 00 4b 3c
       -0.024799027 -0.08269494 -0.12773693 0.012390357
000170 a1 5f 4f bd 1f c4 9a bd 61 0e 56 bd a0 91 23 3d
       -0.05062831 -0.075569384 -0.052259807 0.0399338
000180 d1 7e be 3d 40 88 98 3c df 86 c2 3c a6 a3 c6 bd
       0.09301532 0.018619657 0.023745952 -0.09699182
000190 f6 8b bc bd 99 06 08 be b3 99 ca bd 92 bf e5 bc
       -0.09206383 -0.13283767 -0.09892597 -0.02804545
0001a0 a6 1f 9d bd d7 3d 37 3d 8d 47 ba 3c 16 54 53 bd
       -0.07672052 0.04473671 0.022739196 -0.051593862
0001b0 25 2f c7 3c 5a 66 c6 bd 76 1b d2 bd 33 ca e2 3d
       0.024314472 -0.09687491 -0.10259144 0.11073723
0001c0 df 5e 8f bd a6 be ea bd 48 80 a5 3c 13 9b 8c bd
       -0.07000517 -0.114621446 0.02020277 -0.068655156
0001d0 2f 29 9c bd 96 08 25 3e 9f 37 2a 3d a6 b4 e3 bc
       -0.07625043 0.16116557 0.04155695 -0.0277961
0001e0 0d 3a 11 bd 9e 76 f5 3a c9 aa 0a bc 07 1d a2 bc
       -0.035455752 0.0018727367 -0.00846357 -0.019789232
0001f0 e7 78 dd bc 9c b1 97 bd 7f db 33 bd 56 f9 28 3b
       -0.02703519 -0.07406923 -0.0439105 0.0025783381
000200 77 1d d7 3b a6 61 ac bd 78 bd 93 bd 3d 15 2b bd
       0.006564792 -0.084170625 -0.07213873 -0.0417683
000210 a1 15 95 bd 35 2b 8b bd 21 92 08 3d d1 5c 06 bd
       -0.07279516 -0.067953505 0.033342484 -0.03280336
000220 1e 94 f1 3d 53 e0 41 3d 29 38 bb bd ce 89 b1 3d
       0.11795829 0.047333073 -0.09141571 0.08668862
000230 61 25 fe 3d 45 85 99 bb 96 c7 da bd 03 a1 3d bd
       0.12409473 -0.0046850764 -0.10682599 -0.04629613
000240 47 f0 46 3d e9 c4 02 3c 60 2f fe bc 01 a4 90 3d
       0.04856899 0.007981517 -0.03102845 0.07062531
000250 83 9a b1 3d 42 40 8d bd 51 7a 91 3d 5c 1a 18 3d
       0.08672049 -0.06897022 0.07103408 0.037134513
000260 75 c0 8f 3d 43 a0 30 3d ef 91 8d 3d 87 41 e2 3b
       0.0701913 0.043121587 0.069126 0.006904784
000270 56 8b c4 3c fc fa e8 3c fd b9 80 bd 11 38 d7 3d
       0.023992222 0.028439991 -0.062854744 0.10508741
000280 db 6c 04 3e 26 15 08 3e a8 1d 02 bd 5b a8 60 bc
       0.1293215 0.13289317 -0.031766564 -0.013712014
000290 e5 27 2a 3c 20 e1 69 3d 46 76 33 bd 14 92 6c 3d
       0.010385488 0.05709946 -0.043813966 0.0577565
0002a0 0c a5 00 3d 87 34 94 3d 35 95 20 bd 15 94 37 3d
       0.0314074 0.07236581 -0.039204795 0.044818956
0002b0 52 5b 8e 3a 45 94 c7 3d 5f c0 18 3d 58 50 06 3d
       0.0010860956 0.09745077 0.037292834 0.032791466
0002c0 96 60 9c bb 6f ba ee 3a ed 78 94 bd 6c 9f 37 3d
       -0.004772256 0.001821352 -0.07249627 0.04482977
0002d0 7a 09 8c 3d af 59 30 bd e0 18 74 3d 9c 5a a6 bd
       0.06837745 -0.04305428 0.059594035 -0.08122751
0002e0 84 33 92 3d 1b 04 aa 3c c5 7e c6 3d ca e4 93 3d
       0.07138732 0.02075391 0.09692148 0.072213724
0002f0 16 50 85 3d 05 14 17 be cd 65 10 be ca 02 cd bc
       0.06509416 -0.1475373 -0.14101334 -0.025025744
000300 ce ff b9 bd 59 e3 5b 3d 45 a4 0c bd f4 16 52 bd
       -0.09081994 0.053683612 -0.034336347 -0.05129142
000310 39 db a7 bc 25 30 cd 3d ae 02 db 3d 6f 8a 6a 3d
       -0.020490276 0.100189485 0.106938705 0.057260927
000320 dd db 82 3c ef b1 3d bc cc 1e 3d bd 85 7f 71 bc
       0.01597398 -0.011578067 -0.04617195 -0.014739876
000330 e1 60 82 3d 8a 2d 8b 3d 70 11 9a 3d e2 e3 22 3d
       0.063661344 0.06795795 0.07522857 0.039768107
000340 a8 b9 66 3d 0d 72 91 3c 04 60 5d bc ef f9 42 3d
       0.0563294 0.017754579 -0.013511661 0.047601636
000350 b4 39 12 be 2a bf b3 bd 7d 40 b5 bd f4 34 bb bd
       -0.14279824 -0.08776696 -0.08850191 -0.091409594
000360 f6 df 2f 3e f2 83 72 3e 05 13 18 3e 3e 8d 5f 3d
       0.17175278 0.23683146 0.14851005 0.05457806
000370 9f 9f 9d bc 62 36 c7 3c 22 ba 45 bd d1 e9 6c bd
       -0.019241152 0.024317924 -0.048273213 -0.057840172
000380 10 85 18 be 49 c1 35 3d f3 08 90 3c e6 b8 5b 3d
       -0.1489451 0.044373784 0.017582392 0.05364313
000390 26 3d a5 3d fa 81 2b bd 43 3a f8 3c ba 01 51 3d
       0.08068304 -0.041872002 0.030301219 0.051027037
0003a0 46 dc 24 bd 0c e3 f6 3c 86 85 15 3e 58 71 19 3e
       -0.04024913 0.030137561 0.14601716 0.14984643
0003b0 ff a6 8f 3d 44 35 19 3d ba d1 48 bd eb 30 83 3d
       0.07014274 0.037404314 -0.049028136 0.06405815
0003c0 f7 1c 08 bd 11 c5 16 3d 2b e1 73 3d df 7c 57 3c
       -0.033230748 0.03680903 0.05954091 0.01315233
0003d0 15 20 55 bd 18 07 40 3c 8c 37 e5 bd 81 2f cc bd
       -0.05203255 0.011720441 -0.11192235 -0.09969998
0003e0 56 3a 98 bc 6b 5c d9 bd 81 1f c0 bd 62 35 ed bc
       -0.018582504 -0.106133305 -0.09381009 -0.028956119
0003f0 b2 ae 30 bd ee 29 92 3d 7a 81 a7 bc c3 4e 76 bd
       -0.043135352 0.07136904 -0.020447481 -0.060133707

conv2.bias f4 [32]
000000 00 7e 44 be 0b 88 31 be 5a 4c e3 bd 4c b5 d0 bd
       -0.1918869 -0.17337053 -0.11098547 -0.1019083
000010 00 9e e4 bd c5 5e f7 bd 78 e1 a6 be 32 75 eb bd
       -0.111629486 -0.12078623 -0.32593894 -0.114969626
000020 2c 09 a4 3c 12 b2 80 be 35 8b 55 be 2d 1a 4c bd
       0.020023905 -0.25135857 -0.20853885 -0.04982965
000030 2c f1 a0 be fc 72 f4 bd 38 8a 87 bd 49 9e 97 bd
       -0.31434 -0.11935994 -0.0661816 -0.074032374
000040 28 93 64 bc 36 90 31 be fe 89 8e bd d9 8a 85 be
       -0.0139511 -0.17340168 -0.06959914 -0.26082495
000050 07 7d 42 be 28 28 ef bd 11 b3 5c be 77 a6 ac bd
       -0.18993007 -0.11677581 -0.21552683 -0.08430188
000060 38 7d 98 bd 84 0d bf bc bc c9 fc bd f0 09 4e be
       -0.074457586 -0.023321874 -0.12343165 -0.20120978
000070 e4 cb 2c be b1 d4 3e bd be e9 34 be 70 9f 4d be
       -0.16874653 -0.046589557 -0.1766729 -0.20080352

batch_norm2.weight f4 [32]
000000 36 e3 85 3f 47 7a 6e 3f 6c 57 66 3f 01 38 56 3f
       1.0459964 0.9315533 0.89977145 0.83679205
000010 18 75 65 3f 64 41 6d 3f 46 20 69 3f fc 5a 96 3f
       0.89631796 0.92677903 0.9106487 1.1746516
000020 5a 4d 8c 3f 4b 37 80 3f 91 94 6a 3f d2 4d 7a 3f
       1.0961106 1.0016874 0.91632944 0.97774994
000030 f2 63 9b 3f fd d0 81 3f a7 0c 8f 3f 9d bc 95 3f
       1.2139876 1.0141903 1.1175736 1.1698185
000040 60 a1 66 3f ec 2d 80 3f e5 cf 6d 3f 46 d6 78 3f
       0.9008999 1.0014014 0.92895347 0.97201955
000050 ac 06 8a 3f e1 45 5e 3f d1 bd 6b 3f e9 4e 8e 3f
       1.0783286 0.86825377 0.9208651 1.1117831
000060 fd 83 6a 3f 29 45 71 3f f9 b1 67 3f 7e cb 80 3f
       0.9160765 0.94246155 0.9050594 1.0062101
000070 4e 85 76 3f 9f ea 6a 3f e3 02 8c 3f d3 6d 77 3f
       0.96297157 0.91764253 1.0938381 0.96651953

batch_norm2.bias f4 [32]
000000 05 38 22 be 75 96 ea 3d 86 94 ba bd 57 b1 bf 3e
       -0.15841682 0.11454479 -0.0911036 0.37439987
000010 1f a8 1a 3e 37 69 5d 3d 75 9c 36 3e 74 26 43 3e
       0.15103196 0.05405542 0.17833121 0.19057637
000020 bc 0d 76 bd 8c f5 a4 bd 47 7c 82 3d bb 17 0b 3e
       -0.060071692 -0.08054647 0.0637136 0.13583271
000030 56 75 7b bd 10 9a d8 3c 52 0d 49 3d 2a 0f 33 3e
       -0.061391197 0.02644065 0.04908497 0.17486253
000040 d3 f6 2c bd 4f 27 07 3e ce 08 59 3e 45 a9 7e 3e
       -0.042227577 0.13198589 0.21194765 0.24869259
000050 58 c1 81 3d 17 9b fc bc 94 38 73 bd b7 2e 7c bd
       0.063357055 -0.030835671 -0.05938013 -0.06156799
000060 3a eb 15 be 85 9e cf 3d 2b 2c e0 bc ca fe 82 be
       -0.14640513 0.10137657 -0.02736481 -0.25585014
000070 84 d8 80 3e 21 38 b8 3d 7f b6 01 bd 20 5d b1 3d
       0.25165188 0.08995081 -0.031668182 0.0866034

batch_norm2.running_mean f4 [32]
000000 08 46 61 3f fb 0d 4f 3f c4 b8 18 3f ff 4c 6d 3f
       0.87997484 0.8088071 0.5965693 0.9269561
000010 5e 4d 1d 3f d7 24 e6 3e 87 8a fb 3e 5f a9 41 3f
       0.6144618 0.44949982 0.49129125 0.75649065
000020 04 7b 08 3f 27 db a6 3e 0a 86 c4 3e 5e dd 1b 3f
       0.53312707 0.32589075 0.38383514 0.60884655
000030 62 51 a2 3e 63 66 15 3f cf 28 81 3f 11 35 2b 3f
       0.31702715 0.58359355 1.0090579 0.6687785
000040 85 35 5e 3f ea 4b ce 3e e8 22 1a 3f ae 75 08 3f
       0.86800414 0.40292293 0.6020951 0.53304565
000050 d2 0e 06 3f 43 88 47 3f 99 a0 03 3f 1c fa 17 3f
       0.52366364 0.77942294 0.5141693 0.5936601
000060 9a 39 5e 3f 30 2c dd 3f 52 3c 61 3f 39 a0 02 3f
       0.86806643 1.727911 0.87982666 0.5102573
000070 77 bd ce 3e be 06 4d 3f 0d 10 f7 3e 22 34 e9 3e
       0.40378925 0.8008841 0.48254433 0.45547587

batch_norm2.running_var f4 [32]
000000 09 19 1b 3f 94 59 e3 3f 75 96 ab 3f 1b 90 8b 3f
       0.60585076 1.7761712 1.3405291 1.0903352
000010 7b c7 f4 3f 62 c4 6b 3f ce 5c c0 3f 3f 43 22 3f
       1.9123377 0.9209653 1.5028322 0.6338386
000020 4e 0c 5d 3f 2d 7b 0f 3f 04 c0 8e 3f ed 6f b5 3f
       0.863469 0.56047326 1.1152349 1.4174782
000030 1b ee 04 3f 5e 7e 37 3f f1 10 4c 3f 26 27 f7 3e
       0.5192582 0.71677196 0.7971335 0.48272055
000040 4a 34 12 40 fc 91 4c 3f 51 c4 64 3f f1 0f c3 3f
       2.2844415 0.79910254 0.89362055 1.523924
000050 38 aa 84 3f 6d 74 e5 3f 77 1a 33 3f a1 b6 46 3f
       1.0364447 1.7926155 0.6996226 0.7762242
000060 16 97 52 3f d3 fb b2 3f 48 b7 ce 3f 4c e5 eb 3e
       0.8226179 1.3983101 1.6149683 0.46073377
000070 6e e1 4e 3f e6 27 b7 3f ca 18 06 3f b2 a1 09 3f
       0.8081273 1.4309051 0.52381575 0.5376235

conv3.weight f4 [64, 32, 3, 3]
000000 a4 f5 10 be b8 86 a7 bd 76 bf e7 bc 07 13 3e bd
       -0.14156204 -0.081799924 -0.028289538 -0.046404865
000010 8e cc d4 bd 3e 8e f9 bd ad 49 79 3d c0 1a 92 3d
       -0.10390578 -0.12185334 0.06086128 0.071340084
000020 08 3f 9a 3b df fe 04 be cb 04 0f be b7 15 8b bd
       0.004707221 -0.1298785 -0.13966672 -0.06791251
000030 3c c5 22 bc 08 03 17 bd 83 0d 97 bd 48 a6 a4 3d
       -0.00993472 -0.036868125 -0.07375624 0.08039528
000040 4a b8 49 3c 17 95 68 3d c5 8c 63 bd 1a 2c 8f 3d
       0.012312004 0.05678281 -0.05555417 0.069908336
000050 e7 28 13 bc 99 63 25 bc 36 18 80 bb 53 4d db bc
       -0.00898192 -0.010094547 -0.003909136 -0.02677027
000060 38 c6 10 bd f3 74 82 bc 2b b7 ff 3c 88 92 87 3d
       -0.035345286 -0.015924906 0.031215271 0.066197455
000070 a2 e8 49 bd 2c 1a da bc 6c 86 08 3d db 2b 53 bd
       -0.04929412 -0.026623808 0.03333132 -0.051555496
000080 5c 5a 38 ba a8 6c 7d b9 26 e4 aa 3d cd 61 fd 3c
       -0.00070325076 -0.00024168438 0.08344297 0.030930424
000090 10 b2 fa bc 89 5e 9b bd 79 d4 1b be 4b d8 aa 3d
       -0.030602485 -0.075863905 -0.1521777 0.08342036
0000a0 29 92 1b bd e6 80 04 bc f6 f1 1d bd 8a f6 81 bc
       -0.037981186 -0.008087372 -0.03856083 -0.01586463
0000b0 2e e0 92 bc 84 45 34 bd 49 d2 3d bb f3 0a 11 3c
       -0.017929163 -0.044011608 -0.002896445 0.008852708
0000c0 cf 73 b3 3b 1b 86 76 3d 87 d2 a6 3d 61 58 33 bd
       0.005476452 0.060186487 0.08145624 -0.043785457
0000d0 51 6c 15 bd 8b 81 94 bd 2d f1 0e 3d 25 89 18 3c
       -0.03648025 -0.07251271 0.034897972 0.009310042
0000e0 e0 15 c9 bd 5c c4 47 3d dc 28 60 3c 7b 04 83 bd
       -0.098186255 0.048771247 0.013681617 -0.06397339
0000f0 39 72 14 3d 9e 94 91 3c ff 6c 7b bb d3 6b 65 3d
       0.036241744 0.017771062 -0.0038364527 0.056011032
000100 59 20 c1 3c 51 1d 0f be 7c 07 c7 bc 6d f9 eb bd
       0.023574995 -0.13976027 -0.024295561 -0.115221836
000110 f0 38 bf bd d3 d0 25 bd 08 90 f8 3c ef b6 c4 bd
       -0.09337032 -0.040482353 0.030342117 -0.09605204
000120 cd 5a 1f bd 22 a6 ef 3d 54 97 8e 3d c5 93 52 3d
       -0.038904954 0.11701609 0.06962457 0.051410455
000130 6e e0 0e 3e 73 8e c5 3d 90 ed 09 bd 84 38 ee 3b
       0.139528 0.09646311 -0.033673823 0.007269921
000140 5b 81 ed 3c 7c 42 10 bd d6 1d 93 bd 33 fa b2 bd
       0.028992346 -0.035219654 -0.07183425 -0.08739128
000150 11 6b e7 3c 67 73 a8 bd bd 85 31 bd 13 bc 3a ba
       0.028249295 -0.08225136 -0.043340433 -0.0007123362
000160 4a 8c a4 bc d2 ad 4d 3d d6 0f 0f 3d 4f 4c 09 bd
       -0.020086426 0.050214596 0.03492721 -0.03352004
000170 cb 42 68 bd 4b 00 18 3d 16 78 a1 3c 04 5a 27 3c
       -0.056704324 0.037109654 0.019710582 0.0102143325
000180 15 cf 03 3c ad e6 6f bd 4a 40 81 bd cd 86 0c bd
       0.008044978 -0.0585696 -0.0631109 -0.034308244
000190 2e a2 a4 3d 1e 9e 0e ba a0 81 d7 3b 9b 05 24 3d
       0.08038746 -0.00054404314 0.006576732 0.04004441
0001a0 39 cb 32 bd 30 11 89 be 21 0d 0c be a0 87 12 be
       -0.04365084 -0.26770926 -0.13676883 -0.1430955
0001b0 28 02 d0 bd c7 f3 64 bc 71 62 53 bc 2c e4 de 3d
       -0.10156661 -0.013974137 -0.012901888 0.10883364
0001c0 cb c3 a4 bd e1 5e 02 be 1c 9b 26 3e f8 35 b0 3d
       -0.08045157 -0.12731506 0.16270107 0.08604044
0001d0 04 f8 18 3e 1a 59 3e 3d f6 89 2b bc 45 fb 9d 3c
       0.1493836 0.046471693 -0.010469904 0.019284854
0001e0 35 cd 80 bd b1 cf b3 bc ca 33 65 bd ae 0a e4 3d
       -0.0628914 -0.02194962 -0.055957593 0.111348495
0001f0 f3 e7 00 3e b8 01 cd 3c 1d a4 3f 3e fb 79 0a 3d
       0.12588482 0.025025234 0.18714948 0.033807736
000200 1c 8e 06 3d e7 c0 9d 3b 50 a3 2b bc a4 e5 ff 3c
       0.03285037 0.0048142555 -0.010475948 0.03123743
000210 de 61 8e 3c 6e c5 b4 3c f8 bb 6d bc e5 c4 f3 bd
       0.017380651 0.022066798 -0.014510147 -0.11902789
000220 ca c1 50 3c ac 18 16 bd 2d 44 b8 bd 52 c1 48 3d
       0.012741515 -0.036644623 -0.089973785 0.04901249
000230 b7 9e 24 bc 91 ae 66 bd 61 ff 45 3d df e8 a3 bd
       -0.010047606 -0.056318823 0.04833925 -0.08003401
000240 14 d8 08 bd fa 7a 8e bd 59 fc 85 bd 9b ee 05 3c
       -0.033409193 -0.0695705 -0.06542272 0.008174564
000250 62 1f 47 3c a7 bd df bb 59 4b 88 bc 4b 80 11 3d
       0.012153478 -0.0068280282 -0.016637491 0.03552274
000260 50 f7 9d 3c 37 79 76 bd 90 5a 60 bc 0e 32 da bd
       0.019282967 -0.060174193 -0.013693467 -0.106540784
000270 a8 9d f4 3b 5d b0 b3 3c 69 c6 c0 bc da ae 15 bc
       0.007465083 0.021934683 -0.02353211 -0.009135926
000280 6b ff 41 bd 5a ba 37 be cb 5f fc bc 8d b6 63 bc
       -0.047362726 -0.17942181 -0.030807396 -0.013898504
000290 ef b1 56 ba 32 ae fc bb 69 1d cc bd 38 c3 18 bd
       -0.00081899663 -0.0077111954 -0.09966547 -0.03729555
0002a0 08 33 b7 3b 9b 11 5a bc c7 5d a1 bd 59 a7 c4 bd
       0.0055908 -0.0133098615 -0.07879215 -0.096022315
0002b0 70 31 02 be c3 bc 1b be 0b b2 87 3d c4 4a 22 3c
       -0.12714171 -0.15208726 0.06625756 0.009905521
0002c0 8c e0 27 bd b8 ed 9c bd 63 a9 b3 bd 44 3c 09 be
       -0.04098563 -0.07662529 -0.08772542 -0.13401896
0002d0 67 45 c9 3a 5d 44 50 3b 0d db 5d 3d 01 6d 4b bd
       0.0015355767 0.003177903 0.05416398 -0.0496645
0002e0 6c 0e c1 bc 96 12 1f bd 68 4c bf bd 3c 9a 47 bd
       -0.023566447 -0.038836084 -0.09340745 -0.048731074
0002f0 8d eb 56 bd 89 59 9a bd 27 f8 74 b8 78 b4 a0 3c
       -0.052470732 -0.07536609 -5.8405243e-05 0.019617304
000300 be 2e 23 bd 26 07 dc 3c 94 cc 71 3d 28 3d f4 bd
       -0.0398395 0.026858877 0.05903299 -0.11925727
000310 d1 a9 81 bd e6 42 3c 3d 32 37 8a bc 8b ea 26 3d
       -0.06331218 0.045962237 -0.016872022 0.04075102
000320 31 b1 ea 3c 6a c1 00 3d ee c4 81 3d 84 32 31 3d
       0.028648945 0.031434454 0.063363895 0.043261066
000330 fe d3 f7 bc cc 28 78 bd 8f cc 80 3d 78 d2 4b bd
       -0.030252453 -0.060585782 0.062890165 -0.049761266
000340 f1 2c 1e 3d 92 95 3c bd 41 23 40 bd 44 df 04 3c
       0.03861708 -0.04604108 -0.04690862 0.008109871
000350 c0 08 20 3d f4 30 92 bd 4f 5b db 3d c0 3a ef 3c
       0.039070845 -0.07138243 0.10710775 0.029202819
000360 51 88 1a bd c0 86 7e bd 70 f0 0b be 59 73 8a 3d
       -0.037727658 -0.062140226 -0.13665938 0.06760282
000370 e2 a1 68 bd c0 03 01 bd a0 05 e1 3c f1 e1 ac 3d
       -0.05679501 -0.031497717 0.027468503 0.084415324
000380 04 7b 0f bc 85 6a 65 3c cd 52 8b bc e7 4a 8b bd
       -0.008757357 0.014002447 -0.017007256 -0.06801396
000390 ff fa 0c 3d 45 69 92 3d 51 92 17 bc a0 b4 b0 bc
       0.034419056 0.07148985 -0.009251193 -0.021570504
0003a0 b1 dc 0b bd 15 cf 1e bd 82 7f 96 3d 8f 14 5a bc
       -0.034146015 -0.038771708 0.07348539 -0.013310566
0003b0 de 97 94 bd 55 20 9d 3b 8d 4a 44 bc 32 a1 e5 3b
       -0.07255529 0.004795114 -0.011980665 0.0070077414
0003c0 95 20 90 3d af 6d ee 3d f4 ea c3 3d 7c a0 f3 bc
       0.070374645 0.11642014 0.09566298 -0.02973961
0003d0 d6 a5 36 bb 67 41 e0 3c b3 c1 98 3d 63 4e 30 3d
       -0.0027869842 0.027374936 0.0745882 0.043043505
0003e0 e6 92 9b 3c 02 17 b4 3c 74 92 d6 bc 09 8f c4 bc
       0.018990945 0.021983627 -0.026192881 -0.023993986
0003f0 c8 9d 40 3d 48 06 f4 bd f2 c5 c7 bd de 2f b9 3c
       0.047025472 -0.119152606 -0.09754552 0.022605833

conv3.bias f4 [64]
000000 fe a8 4f be c4 de dd bd 82 eb 64 be a0 3f 98 be
       -0.20279309 -0.10833505 -0.22355464 -0.29736042
000010 01 2e 23 be 86 07 01 be 44 63 a0 be f2 60 7b be
       -0.15935518 -0.12600526 -0.31325734 -0.245487
000020 6a 04 47 be d7 27 63 be 32 52 69 be 8e ae e0 bb
       -0.19435278 -0.22183166 -0.22785261 -0.006856746
000030 c5 de 8e be 21 21 ab be 53 f2 4d be 65 5c bf be
       -0.27904335 -0.33423713 -0.2011197 -0.3737518
000040 1e 85 34 be 3c 6e cc be 26 48 d9 bd c6 73 03 be
       -0.17628905 -0.39927852 -0.10609464 -0.12837133
000050 e0 7b e2 bd dc 64 0e 3c ce 98 08 be 3c 72 f5 bb
       -0.110587835 0.008691039 -0.1333954 -0.0074904244
000060 0f 69 bd be c4 ff 52 be d5 f3 72 be 7c 8e f5 bd
       -0.36994216 -0.2060538 -0.23725827 -0.11990067
000070 f0 41 9f be c4 2e ae be 6c 9e 48 be 6b d8 53 be
       -0.31104994 -0.34020054 -0.19591683 -0.20688026
000080 f3 cc 33 be 1c ea 95 bd fa 93 94 be ad de f6 bd
       -0.1755865 -0.073200434 -0.29019147 -0.12054191
000090 72 1f 0d be e0 d4 9d be 84 8c 43 be e6 cd 34 bd
       -0.13781527 -0.30826473 -0.19096571 -0.044141673
0000a0 80 9b 98 be ef ec 51 be 91 f9 36 bd 37 61 19 be
       -0.29806137 -0.20500539 -0.0446716 -0.14978491
0000b0 b3 e4 91 be 1c 49 4b be 40 eb 98 be 92 d9 0d be
       -0.28494796 -0.19852108 -0.29866982 -0.13852528
0000c0 6a 4e 2f be 21 3a 5f be 66 41 11 be 43 e6 b2 be
       -0.17119756 -0.21799518 -0.14185104 -0.349413
0000d0 65 cd 43 be 07 1f 82 be 14 31 23 be bd 7e 0e be
       -0.1912132 -0.25414297 -0.1593669 -0.13915534
0000e0 b7 fe 4d be f3 4e 23 be e8 f3 2c be a0 c6 45 be
       -0.20116697 -0.15948085 -0.16889918 -0.1931405
0000f0 81 c3 86 be ad 16 62 be dd dd 49 be 7d 7a 01 be
       -0.26321033 -0.22078963 -0.1971354 -0.12644382

batch_norm3.weight f4 [64]
000000 7c fd ad 3f 56 76 ae 3f 66 74 b8 3f 1d 23 c5 3f
       1.3592982 1.3629863 1.4410522 1.5401341
000010 77 09 9c 3f f1 99 9d 3f b0 52 c0 3f cc f3 b4 3f
       1.2190388 1.2312604 1.5025234 1.4136901
000020 ce ff b8 3f 77 13 b1 3f 39 2e ab 3f ed c4 ab 3f
       1.4453065 1.3834065 1.3373481 1.3419472
000030 7f 14 c4 3f 87 3f b5 3f a7 43 b5 3f 2a da c8 3f
       1.5318755 1.4160012 1.4161271 1.5691578
000040 55 64 b1 3f c3 46 c5 3f be bb b5 3f 9e 33 c4 3f
       1.3858744 1.541222 1.4197919 1.5328252
000050 e3 a0 9a 3f e6 01 b6 3f d4 aa b2 3f 69 8c c0 3f
       1.2080349 1.4219329 1.3958383 1.504285
000060 67 0f b0 3f 04 16 b3 3f e3 de cb 3f b4 1b b7 3f
       1.37547 1.3991094 1.5927395 1.4305329
000070 96 c8 c6 3f d5 33 c3 3f 4a 4c c2 3f e2 cb a4 3f
       1.5529964 1.5250193 1.5179532 1.287472
000080 0e fb 9f 3f 34 ee b4 3f 5b 78 bc 3f 4d a2 b4 3f
       1.2498491 1.4135194 1.472423 1.411203
000090 f2 1e a4 3f d6 ae be 3f c9 16 b7 3f 22 a5 b0 3f
       1.2821944 1.4897106 1.4303828 1.3800395
0000a0 c2 cf af 3f df 03 b3 3f c7 77 a9 3f 08 0b b6 3f
       1.3735278 1.3985556 1.3239678 1.4222116
0000b0 fd 83 9a 3f 66 96 9e 3f 61 33 c1 3f e1 d6 b9 3f
       1.207153 1.2389648 1.5093805 1.4518701
0000c0 8b 80 a2 3f aa c0 b9 3f 7a 62 a8 3f 28 8a c8 3f
       1.2695478 1.4511921 1.3155053 1.5667162
0000d0 41 3e 9d 3f ef c7 b5 3f 78 fd bb 3f 66 e4 a9 3f
       1.2284623 1.420164 1.4686728 1.3272827
0000e0 2d 13 be 3f 07 ab b1 3f 67 2d a5 3f 88 a7 a7 3f
       1.4849602 1.3880318 1.2904481 1.3098001
0000f0 c3 44 ae 3f 19 4b b3 3f 11 9c a6 3f 67 33 b3 3f
       1.3614734 1.4007293 1.3016378 1.4000062

batch_norm3.bias f4 [64]
000000 b7 32 02 3e bc 0e f7 3c d8 30 0f 3e 9d 84 08 3e
       0.12714659 0.030158393 0.13983476 0.13331838
000010 65 ce 01 3e 8c a1 03 3e ca 91 2f bc 81 53 10 3e
       0.1267639 0.12854594 -0.010715911 0.14094354
000020 62 d6 a3 3d 81 29 a5 3d 19 59 a7 bd 48 13 19 3e
       0.07999875 0.08064557 -0.08171291 0.14948761
000030 8d 78 8a 3d c9 23 89 bc 47 e7 b7 bd 4f c8 33 be
       0.067612745 -0.016740697 -0.089796595 -0.1755688
000040 e3 6e 98 bd b7 a2 3a be 0e 73 11 3c 33 3f 07 3e
       -0.07443025 -0.18226133 0.008877529 0.13207702
000050 3f 58 21 3e 7c cc 3e 3c b0 cb 89 bc eb 0b c5 3d
       0.1575632 0.011645433 -0.016820759 0.09621414
000060 32 7d 2d 3e 57 63 10 3e 7c 00 09 3e 57 db 8e bd
       0.1694229 0.14100395 0.13379091 -0.069754295
000070 78 30 f3 bd a9 2c 1d be a3 b6 d8 3d ac 31 0f 3e
       -0.11874479 -0.15349068 0.1058171 0.13983792
000080 5f 77 00 3e fe 54 4b 3d 9b d2 c5 3d 3b 84 99 3d
       0.12545536 0.0496416 0.096593104 0.07495924
000090 e6 52 32 3e 97 9c 39 be 59 d5 8d 3d f7 c6 ec 3d
       0.17414436 -0.1812614 0.069254585 0.11561387
0000a0 ec 33 1d 3e a4 d2 1b 3e 11 ca 05 3e 7c 2f fd 3d
       0.15351838 0.15217072 0.13065363 0.123625726
0000b0 06 bb f9 bd c3 78 08 3e 71 8b a7 bc ad 3f cf bc
       -0.12193875 0.13327317 -0.020452233 -0.025298918
0000c0 d6 7f d0 bd cf ce a2 bc 08 be 34 3e 10 21 15 bd
       -0.10180633 -0.019874005 0.17650616 -0.036408484
0000d0 26 1e ff bd 9b 1f 46 3d e1 c9 03 3e 5a 53 34 3e
       -0.12456922 0.048369985 0.1286998 0.17609921
0000e0 be fb aa bd c0 fb 7c bd 27 42 06 3e 4b 28 3b 3e
       -0.08348797 -0.061763525 0.13111173 0.1827709
0000f0 c9 78 ab 3d 62 34 26 3e 83 6f 27 3e f3 4a 24 3e
       0.08372647 0.1623092 0.16351132 0.16044216

batch_norm3.running_mean f4 [64]
000000 71 ac 3e 3f 10 37 4a 3f 88 1c 87 3f 03 a8 30 3f
       0.74481875 0.7899027 1.0555582 0.69006366
000010 7e c3 78 3f f6 28 42 3f 7e 66 83 3f da d8 32 3f
       0.971733 0.7584375 1.0265653 0.6986214
000020 30 b8 54 3f 6f da 2d 3f 33 60 c1 3f 06 0d 95 3f
       0.8309355 0.6791143 1.5107483 1.16446
000030 b7 5e 13 3f 47 39 53 3f 7b 64 63 3f 2a 13 a6 3f
       0.575664 0.82509273 0.88825196 1.2974598
000040 69 e8 85 3f 0c 0a 42 3f 44 e0 83 3f 06 34 78 3f
       1.0461551 0.7579658 1.0302815 0.9695438
000050 ca 4a 60 3f 79 37 cd 3f 54 7a 71 3f 3d 2d d3 3f
       0.8761412 1.6032554 0.9432728 1.6498181
000060 ea 1a 33 3f a5 fe 1c 3f a4 1b 9d 3f d8 9b d7 3f
       0.6996294 0.61326057 1.227406 1.6844435
000070 71 f0 a8 3f f5 e0 33 3f a0 09 2c 3f 8f 48 0e 3f
       1.3198377 0.7026513 0.67202187 0.55579466
000080 e3 cc 8f 3f 4e fe af 3f 92 6f 94 3f 8e 75 86 3f
       1.1234401 1.3749483 1.1596549 1.0504625
000090 ac 09 12 3f 43 c8 59 3f 41 37 2d 3f f6 66 7d 3f
       0.5704601 0.850712 0.67662436 0.9898523
0000a0 03 31 47 3f 73 d5 a1 3f aa 6a cc 3f 30 80 55 3f
       0.7780916 1.2643265 1.5970051 0.83398724
0000b0 4b 07 cc 3f 18 8b 46 3f a5 a1 83 3f 46 66 80 3f
       1.5939726 0.7755599 1.0283705 1.0031211
0000c0 20 c4 ad 3f eb 4a 4c 3f 64 d6 71 3f 6d ce 3d 3f
       1.3575478 0.79801816 0.9446776 0.74143106
0000d0 3a e6 ab 3f 44 1f 3b 3f 0f dc 4c 3f f5 4b 56 3f
       1.3429635 0.7309458 0.8002328 0.8370965
0000e0 8a af 40 3f 93 e8 af 3f 78 7f 29 3f 1f 17 3f 3f
       0.7526785 1.3742851 0.66210127 0.74644655
0000f0 da 2d c0 3e 3b 5e 97 3f b8 85 3c 3f 26 bc 84 3f
       0.37534982 1.1825632 0.7364154 1.0369918

batch_norm3.running_var f4 [64]
000000 25 2f 88 3f 25 6d 34 3f 28 0d a0 40 17 03 cd 3f
       1.0639387 0.7047904 5.001606 1.6016568
000010 ff ca 28 40 b1 63 12 3f 83 e1 7a 40 75 21 1e 3f
       2.63739 0.57183367 3.9200141 0.617698
000020 b4 16 74 40 a5 f2 0c 3f 2e 45 f7 40 da 0b a7 3f
       3.8138857 0.55057746 7.727195 1.3050492
000030 3c e7 a1 3f f6 37 03 40 d0 86 aa 3f f7 48 fa 3f
       1.2648692 2.0502906 1.3322392 1.9553517
000040 c6 2f 2a 40 f6 24 a9 3f ab a9 95 3f 94 d0 28 40
       2.6591659 1.3214405 1.1692404 2.6377306
000050 12 f9 5e 3f d8 ae a2 40 2b 00 39 40 ab 76 91 40
       0.870988 5.083843 2.8906353 4.545736
000060 81 d8 ba 3f 62 0e 02 40 27 79 ee 3f 28 d4 b6 40
       1.4597322 2.0321279 1.8630723 5.713398
000070 ae 25 15 40 2b 8c 78 3f 5d df 11 40 03 d1 d9 3e
       2.3304248 0.9708888 2.279258 0.42542276
000080 70 5d 57 40 0d 1b 7a 40 99 5e 57 40 ff c7 9c 40
       3.365078 3.907901 3.3651488 4.8994136
000090 04 4f 08 3f 4a 25 ca 3f 6e 04 11 40 55 e7 83 40
       0.5324557 1.579263 2.2658954 4.121989
0000a0 13 b6 87 3f 0a 54 61 40 da a7 0b 41 15 7f 6b 40
       1.060244 3.5207543 8.728479 3.6796315
0000b0 20 44 10 41 90 8b 28 3f 33 04 6c 40 4e 0b 31 40
       9.016632 0.65837955 3.6877563 2.766315
0000c0 7e cd b2 40 01 d1 d8 3f 3c 77 28 40 2e 6b 0b 40
       5.5875845 1.6938783 2.6322775 2.1784167
0000d0 f7 d1 88 40 35 42 e0 3f 03 b3 2b 40 ff a8 6d 3f
       4.2756305 1.7520205 2.682801 0.9283599
0000e0 0b 99 f3 3f cd 86 da 40 90 07 a7 3f b0 77 64 3f
       1.903108 6.828955 1.3049183 0.8924513
0000f0 8c c7 ef 3e 3d ea c4 3f be e0 1d 3f c7 04 1d 40
       0.4683193 1.5383984 0.61671054 2.4534166

fc.weight f4 [3, 64]
000000 8c 8a b5 3e 5e ca 82 3e 17 77 a0 be c1 f8 ad be
       0.35457265 0.2554502 -0.31340858 -0.33978847
000010 e6 cd b4 3e dc c7 79 3e f3 b8 07 3f 6e 0f b7 3e
       0.35313338 0.24392647 0.53016585 0.3575396
000020 48 9e d9 be c0 a4 af 3e 42 93 01 3f e5 62 66 bd
       -0.42503572 0.34305382 0.5061532 -0.056246657
000030 47 68 70 be 3c 44 e7 be 36 6c 8c 3e 34 05 50 be
       -0.23477279 -0.45169246 0.27426308 -0.20314485
000040 d5 54 0e 3f 03 51 31 be 62 99 fa 3e 1d 2a 8c be
       0.55598193 -0.1731606 0.48945147 -0.2737588
000050 7c 2c 5f 3e bd 87 de be 6f 10 ed 3e 55 8e 7e be
       0.21794313 -0.43462935 0.463016 -0.24858983
000060 e7 f8 09 bc 4c d5 6b be 6f ac 9d be 72 73 e4 be
       -0.008421159 -0.23030585 -0.3079562 -0.44619328
000070 d8 50 c5 be e1 0b 13 be 22 40 74 be c3 b4 9b 3e
       -0.3853824 -0.1436 -0.2385259 0.30411348
000080 d9 5f 8a 3e 63 cb d6 3e 5a 67 b8 be e8 27 df be
       0.2702625 0.41952047 -0.3601635 -0.43585134
000090 28 e1 1a bd 00 ea 79 be 98 50 e3 be 7c 75 a4 be
       -0.037812382 -0.2440567 -0.44397426 -0.32120883
0000a0 a0 f7 f0 bd 40 d2 2f be 0d 72 98 be 8f 19 99 be
       -0.11765981 -0.17170048 -0.29774514 -0.29902312
0000b0 d6 3c 9a 3e cf 77 a9 3e 86 91 bb 3e 8d 5d cc be
       0.3012454 0.3309922 0.36634463 -0.39915124
0000c0 02 2a be 3e e4 78 8b be 86 53 bf bd ce 9b d3 3e
       0.37141424 -0.2724067 -0.09342103 0.41329807
0000d0 b2 ca 84 3e 2b f3 be 3e 98 1e 8d be d7 3d e8 3d
       0.25935894 0.37294897 -0.27562404 0.1133992
0000e0 28 6c a0 be 73 19 c9 3e 07 c8 90 3e 18 28 0c 3e
       -0.31332517 0.3927723 0.2827761 0.1368717
0000f0 a5 23 6e 3e 34 81 e2 bd cf de 61 3e d9 ad f6 bd
       0.23255785 -0.110598 0.22057651 -0.120448776
000100 ce c6 9b 3d 96 53 a6 bd f7 e8 db 3e 81 44 e3 3e
       0.07606278 -0.081214115 0.42951176 0.44388202
000110 86 55 d0 3d 8e 27 26 3d b4 20 62 be 9f eb 54 3d
       0.10172562 0.040565066 -0.22082788 0.05198252
000120 0a 28 c8 3e 40 5e 07 3b 3f 84 6c be 37 02 cd 3e
       0.39093047 0.0020655543 -0.23097323 0.40040752
000130 7b 6b 04 3f 00 02 1f 3d ca 41 d1 be f1 03 cb be
       0.517265 0.038820267 -0.40870506 -0.39651445
000140 e9 c3 6f be b5 d2 ba be bd ad 0e be 89 af eb 3e
       -0.23414578 -0.36488882 -0.13933463 0.4603236
000150 30 27 3e 3e bb 06 47 3e ce 0a c0 bd 88 80 17 3f
       0.18569636 0.19436161 -0.09377061 0.591805
000160 96 c3 c3 3e d7 f4 03 3f ba 70 ff 3e 1f b0 c3 bb
       0.38235158 0.5154547 0.4989069 -0.005971923
000170 da f4 71 be 33 af fd be 5d 7d 15 3f 36 ea 18 3e
       -0.2362856 -0.4954773 0.58394414 0.14933094
000180 4c 8e 15 3c 88 d1 dc bd 1e 11 e9 3e 02 02 b6 3e
       0.0091281645 -0.107821524 0.45520872 0.35548407
000190 b6 40 6d 3e d6 8b c8 be 8d 51 ed 3e f5 7b bf 3e
       0.23169217 -0.39169186 0.4635128 0.3739926
0001a0 9c 99 c6 3e 5e 5b fb 3e ad 50 cb 3e cf 88 f1 3e
       0.3878907 0.49093145 0.39709988 0.4717469
0001b0 6d 22 79 be 94 de 07 3e 50 58 68 be 4c cc de 3b
       -0.24329539 0.132685 -0.22689939 0.0067992564
0001c0 25 6c 83 be 13 c5 85 3d 15 f7 ca 3e 58 c6 21 be
       -0.25668445 0.065317295 0.39641634 -0.15798318
0001d0 b3 4f a7 be 2d cf 0a bc be e5 cc 3e 32 9b a2 3e
       -0.32677993 -0.008472246 0.4001903 0.3175903
0001e0 19 bb 27 bd fd 54 1c be 2b 41 23 3e 48 f3 8b 3e
       -0.040949915 -0.15266795 0.15942828 0.27334046
0001f0 60 75 53 bd 41 67 4f 3e 5e f3 31 3e 82 70 02 3f
       -0.05162561 0.20254232 0.17377993 0.50952923
000200 27 c9 a8 be 25 f9 4c be 6f 70 8b be 31 9a 91 be
       -0.32965967 -0.20016916 -0.27234218 -0.2843795
000210 5c be 35 be 47 eb ad be 58 98 4d be b3 2a ed be
       -0.17748398 -0.33968565 -0.20077646 -0.4632164
000220 44 49 dc bd c4 c2 9d be 82 c1 89 bc 13 b7 a0 be
       -0.10756162 -0.30812657 -0.016815905 -0.31389675
000230 67 be ba 3b 4d cb 51 3e 72 3b 7f bd 74 7a 21 3f
       0.0056989673 0.2048771 -0.06231255 0.63077474
000240 ec 7f bf 3c c5 e6 18 3f 3f 8d 39 be 24 7d 5f be
       0.023376428 0.59727126 -0.18120287 -0.21825081
000250 34 72 b6 be 43 2a 95 3e 6f b8 01 be 0d dc b4 bc
       -0.35634005 0.29133806 -0.12668012 -0.022077585
000260 27 ac fa be 1f 8a 8c be 71 61 be be 3f df ba 3e
       -0.48959467 -0.27449128 -0.37183717 0.36498448
000270 6f ab 22 3f 30 f4 0a 3f 55 b1 d7 bd 0b df ba be
       0.63542837 0.5427885 -0.1053187 -0.36498293
000280 13 eb 95 be 11 42 77 be db 60 1b be 15 54 ab bd
       -0.2928091 -0.24146296 -0.15173666 -0.08365647
000290 65 31 bd be 48 24 08 3f c2 19 10 3c ea d7 51 be
       -0.36951748 0.5318036 0.008795204 -0.20492521
0002a0 b0 cc ec be 48 fb ba be 79 43 63 be ad da 42 be
       -0.46249914 -0.36519837 -0.22193708 -0.1902873
0002b0 61 83 8d 3d 77 97 bb be 86 4a 66 be 82 08 c0 3e
       0.06909824 -0.36638996 -0.22489366 0.3750649
0002c0 3c 01 f7 3b dc f3 ad 3e 24 2f 8a be 2a fb 1d be
       0.007537989 0.33975112 -0.2698909 -0.15427843
0002d0 34 d2 b4 3d fb b4 6a be 4b 66 8a be c6 48 f4 be
       0.088291556 -0.22920601 -0.27031168 -0.47711772
0002e0 ed 66 ea 3e a5 28 54 bd 4b 5b af be 80 8d cd be
       0.4578165 -0.051796574 -0.34249339 -0.40147018
0002f0 55 1a b2 be b6 41 d0 be 3c bb a4 be 63 9c a8 be
       -0.34785715 -0.40675133 -0.32174098 -0.32931814

fc.bias f4 [3]
000000 47 4f 9e 3d 23 78 d6 3c ed 55 a9 bd
       0.07729965 0.026180333 -0.08268342
