Algoritmo/classificador_semaforo/cnn/model_1.pth (torch, 104322 bytes, 24 tensors)

batch_norm_input.weight f4 [3]
1.0255618 1.0221586 0.92282754
00000000: 9c45 833f 18d6 823f 6d3e 6c3f

batch_norm_input.bias f4 [3]
-0.03454131 0.036098648 -0.0070011774
00000000: 307b 0dbd 2ddc 133d 226a e5bb

batch_norm_input.running_mean f4 [3]
0.3594585 0.3325159 -0.16464208
00000000: f20a b83e 863f aa3e ef97 28be

batch_norm_input.running_var f4 [3]
1.1776111 1.2368749 0.91954
00000000: f6bb 963f eb51 9e3f f966 6b3f

conv1.weight f4 [16, 3, 3, 3]
-0.011538059 0.13242562 -0.14886838 0.0767885 -0.012026169 -0.100888595 0.012887185 0.1547684
0.14651045 -0.1360844 -0.030954484 0.121922985 0.15170498 0.080734044 0.08352867 0.13466133
0.13955894 0.09683344 0.014898332 -0.08907079 -0.10931927 0.083173715 0.18965966 -0.02751413
-0.13905892 0.029422244 0.0015968195 -0.14992446 0.069364235 0.13904761 -0.12823604 0.05296581
0.04459196 0.06518005 -0.15334775 -0.034679886 -0.1654422 -0.14796098 -0.09321157 -0.005916494
-0.17859574 -0.07490428 -0.18857816 -0.12175301 -0.15232836 0.18874608 -0.08323702 0.12626214
0.062681146 0.07445975 -0.13801034 -0.090767495 0.09931717 0.21765429 0.12511384 0.20383146
-0.1422407 -0.1621469 0.06403106 -0.11138472 0.04779429 -0.09367867 0.13493784 0.05589897
0.046546362 0.23080951 -0.0971126 -0.07570961 -0.018183926 0.073818564 0.18923551 0.062133938
-0.21133341 -0.15341656 0.028361388 -0.09608074 -0.0612876 -0.055911582 -0.15629238 0.11431544
-0.08587844 0.013158228 0.09496081 0.020566927 0.023852456 0.10908027 -0.15096223 -0.02903672
-0.11795378 -0.054581996 0.22671098 0.22494818 0.00074967404 0.011328754 -0.0272578 0.0584291
0.20729773 0.020030614 -0.025039107 0.11420113 0.07873774 0.015376345 -0.04164892 -0.019274427
-0.017727746 -0.11119739 0.18157668 0.047540974 -0.15886132 -0.18440071 -0.18541566 -0.0840631
0.14550512 0.009288615 -0.018120054 0.077214874 0.16484231 0.121166214 0.021070382 -0.07618845
0.12551352 -0.010022453 -0.17351769 0.020358332 0.04978996 -0.00015451858 0.049325906 -0.03776988
-0.050190475 0.052460685 -0.1292215 0.15262489 -0.09491674 -0.098201655 -0.12309201 0.0716864
0.07229194 0.13363168 -0.14239733 0.021489102 -0.014905984 0.10781489 -0.04052178 -0.062388252
0.11706171 0.17946257 0.042019434 -0.014522702 -0.14091457 -0.094010875 0.18391842 0.17908706
-0.0041160113 -0.032953776 -0.03126031 -0.09964941 -0.050259005 -0.17743304 -0.037097458 0.12767209
-0.062076453 -0.12045247 0.17227404 0.11267539 0.15222935 -0.061509456 0.13837393 -0.14070238
0.09053113 0.019736677 0.16108312 0.071499795 0.16314168 -0.033832286 0.12162127 -0.16945732
-0.08021484 -0.13176705 -0.1941554 0.05119103 0.07206705 0.037286125 -0.13454036 -0.20479
0.0045075007 -0.14618629 -0.1275519 0.12953296 -0.14720307 -0.15436737 0.025732769 -0.09623387
-0.25348866 -0.06955564 0.03981123 -0.16676816 0.0023398711 -0.15107878 -0.01840869 0.15294304
-0.088584565 -0.08978248 -0.05264803 -0.15277009 0.08140987 0.14944428 0.0054106875 -0.1697125
0.06181443 0.13167301 -0.08225443 0.029639656 -0.16112375 0.09904751 0.15490738 -0.12413965
0.1081908 -0.0043846727 0.0037391302 0.10640037 -0.10334916 -0.04683717 -0.06998913 0.14108258
0.11843506 -0.05777904 -0.10460689 0.015876248 0.08611871 -0.1885103 0.0075794305 -0.095635206
-0.12377469 -0.008776376 0.009555239 -0.15463516 0.11317842 0.10311678 -0.1070204 0.16673714
0.029312218 -0.107148334 0.08012047 -0.18056977 -0.024051346 0.101921536 -0.04981882 -0.05169246
-0.06388429 0.13491629 -0.16025968 -0.14595574 0.030974818 -0.27497524 -0.15630105 0.07443607
00000000: 210a 3dbc 959a 073e f470 18be 4a43 9d3d
00000010: 6909 45bc ae9e cebd c624 533c 9c7b 1e3e
00000020: d606 163e b559 0bbe 4294 fdbc c2b2 f93d
00000030: 8d58 1b3e e457 a53d 1411 ab3d a9e4 093e
00000040: 8ae8 0e3e 9c50 c63d 2218 743c bf6a b6bd
00000050: c8e2 dfbd fb56 aa3d 2436 423e 5065 e1bc
00000060: 7665 0ebe eb06 f13c 5f4c d13a cc85 19be
00000070: d60e 8e3d 7f62 0e3e 4f50 03be adf2 583d
00000080: 0fa6 363d 1e7d 853d 3107 1dbe 7f0c 0ebd
00000090: ae69 29be 1583 17be b5e5 bebd 26df c1bb
000000a0: cde1 36be 6a67 99bd a21a 41be a459 f9bd
000000b0: f7fb 1bbe a746 413e 2c78 aabd dd4a 013e
000000c0: f95e 803d 5a7e 983d 9552 0dbe 4fe4 b9bd
000000d0: cd66 cb3d c4e0 5e3e d81d 003e 32b9 503e
000000e0: 8ca7 11be d609 26be b722 833d ac1d e4bd
000000f0: f2c3 433d 9ada bfbd 252d 0a3e 52f6 643d
00000100: 66a7 3e3d 5459 6c3e f9e2 c6bd a40d 9bbd
00000110: 75f6 94bc 302e 973d f4c6 413e 2880 7e3d
00000120: c967 58be 3b19 1dbe 2456 e83c fbc5 c4bd
00000130: b508 7bbd 8b03 65bd 1c0b 20be 371e ea3d
00000140: 09e1 afbd 9c95 573c d07a c23d f97b a83c
00000150: 3a66 c33c 7a65 df3d d895 1abe 6ade edbc
00000160: c091 f1bd 5f91 5fbd ec26 683e d158 663e
00000170: c685 443a 3d9c 393c c04b dfbc 5a53 6f3d
00000180: db45 543e 3e17 a43c d01e cdbc 48e2 e93d
00000190: 4141 a13d 11ed 7b3c 0f98 2abd 67e5 9dbc
000001a0: c739 91bc 75bb e3bd 3def 393e 53ba 423d
000001b0: 8bac 22be 8ad3 3cbe 9add 3dbe 4629 acbd
000001c0: 4bff 143e 462f 183c 8270 94bc d522 9e3d
000001d0: 6ccc 283e fe25 f83d cb9b ac3c b108 9cbd
000001e0: 9e86 003e 3735 24bc 9fae 31be 84c6 a63c
000001f0: 8ff0 4b3d 4406 22b9 f609 4a3d 97b4 1abd
00000200: 8794 4dbd 04e1 563d a452 04be b349 1c3e
00000210: b563 c2bd f31d c9bd aa17 fcbd 52d0 923d
00000220: cc0d 943d bed6 083e 9bd0 11be ea09 b03c
00000230: 3a38 74bc 0ece dc3d 2afa 25bd d38a 7fbd
00000240: 0dbe ef3d 09c5 373e 921c 2c3d a1f0 6dbc
00000250: e94b 10be c688 c0bd 1c55 3c3e 9962 373e
00000260: 9bdf 86bb 8afa 06bd d00a 00bd fd14 ccbd
00000270: 63dc 4dbd 02b1 35be 81f3 17bd 79bc 023e
00000280: e143 7ebd c9af f6bd 9b68 303e 5bc2 e63d
00000290: 03e2 1b3e 57f1 7bbd e5b1 0d3e 4914 10be
000002a0: 6368 b93d d0ae a13c f9f2 243e 7c6e 923d
000002b0: 9d0e 273e b993 0abd 9314 f93d 3886 2dbe
000002c0: ae47 a4bd f1ed 06be acd0 46be afad 513d
000002d0: e497 933d 56b9 183d f3c4 09be 78b4 51be
000002e0: a8b3 933b dcb1 15be f79c 02be 4aa4 043e
000002f0: 67bc 16be 7b12 1ebe 87cd d23c 4316 c5bd
00000300: 44c9 81be 3073 8ebd 1a11 233d 46c5 2abe
00000310: 8658 193b 65b4 1abe d2cd 96bc 1a9d 1c3e
00000320: d36b b5bd e0df b7bd 76a5 57bd c36f 1cbe
00000330: 38ba a63d ec07 193e 234c b13b 1dc9 2dbe
00000340: 2131 7d3d 4ad5 063e 0375 a8bd ddce f23c
00000350: a0fd 24be 6cd9 ca3d 0aa0 1e3e ee3c febd
00000360: 2393 dd3d 4dad 8fbb 320c 753b 70e8 d93d
00000370: b9a8 d3bd 55d8 3fbd 7656 8fbd f477 103e
00000380: 158e f23d b7a9 6cbd 233c d6bd e80e 823c
00000390: 025f b03d d808 41be df5c f83b 64dc c3bd
000003a0: 967d fdbd caca 0fbc 948d 1c3c ae58 1ebe
000003b0: 16ca e73d e42e d33d 832d dbbd 24bd 2a3e
000003c0: 2d20 f03c 9670 dbbd 3316 a43d 48e7 38be
000003d0: 5407 c5bc 3dbc d03d d20e 4cbd 79bb 53bd
000003e0: c4d5 82bd 7f27 0a3e 1d1b 24be 6c75 15be
000003f0: e7be fd3c 8ec9 8cbe 620d 20be f071 983d

conv1.bias f4 [16]
0.16506599 -0.16973726 -0.20302859 0.1732518 -0.13454767 0.15578267 -0.13275696 -0.10749287
-0.18580583 -0.14530955 0.008936069 0.0144644845 0.06897967 0.11774798 -0.07688617 0.15307277
00000000: 0f07 293e 9bcf 2dbe bae6 4fbe eb68 313e
00000010: ddc6 09be 7e85 1f3e 71f1 07be 3925 dcbd
00000020: e243 3ebe 07cc 14be 9768 123c 72fc 6c3c
00000030: 3745 8d3d da25 f13d 7f76 9dbd 1cbf 1c3e

batch_norm1.weight f4 [16]
0.90639406 0.981386 0.9638461 0.97817403 0.97005385 0.96455556 1.0007583 0.9631759
1.03606 0.9513704 1.0663079 1.0021803 1.070257 1.0437324 0.98837894 0.9608363
00000000: 7109 683f 1d3c 7b3f 9ebe 763f 9d69 7a3f
00000010: 7355 783f 1ded 763f d918 803f b292 763f
00000020: 9d9d 843f 038d 733f c77c 883f 7247 803f
00000030: 2efe 883f 0699 853f 6706 7d3f 5ef9 753f

batch_norm1.bias f4 [16]
-0.07629385 0.09349963 0.13963963 0.15849134 0.086048886 -0.030805157 0.056738473 0.111859955
0.08186463 0.16893674 0.016033335 0.07494916 -0.02779578 -0.07988176 0.12949763 0.0472823
00000000: f33f 9cbd bc7c bf3d b1fd 0e3e 8e4b 223e
00000010: 663a b03d 195b fcbc 9a66 683d d516 e53d
00000020: a5a8 a73d c1fd 2c3e 5758 833c f27e 993d
00000030: fab3 e3bc 0c99 a3bd 079b 043e 16ab 413d

batch_norm1.running_mean f4 [16]
0.50411713 0.31394848 0.15253966 0.50826174 0.11904369 0.31333622 0.2171092 0.3890149
0.019757133 0.70893157 0.14919743 0.22509876 0.23173133 0.30587932 0.11874869 0.323509
00000000: d20d 013f dbbd a03e 5b33 1c3e 711d 023f
00000010: 2ecd f33d 9b6d a03e e051 5e3e f62c c73e
00000020: b6d9 a13c 8a7c 353f 36c7 183e 4a80 663e
00000030: fa4a 6d3e 379c 9c3e 8332 f33d f9a2 a53e

batch_norm1.running_var f4 [16]
0.37292966 0.13695766 0.101169474 0.38256708 0.028030291 0.1685845 0.12029239 0.1999885
0.005424691 0.7036187 0.040020477 0.10767311 0.04011727 0.089570925 0.021821624 0.06925554
00000000: a3f0 be3e a13e 0c3e f131 cf3d d5df c33e
00000010: c89f e53c 6aa1 2c3e db5b f63d c9c9 4c3e
00000020: 9bc1 b13b 5b20 343f 83ec 233d b883 dc3d
00000030: 0252 243d f670 b73d 43c3 b23c d9d5 8d3d

conv2.weight f4 [32, 16, 3, 3]
-0.03901912 -0.03036887 0.059430737 0.0026930424 0.02867911 0.005525086 -0.04355963 0.030927908
-0.036267273 0.092274666 0.006309295 -0.0220687 -0.022267962 -0.027793014 0.03972983 0.09078718
0.08291146 -0.011703552 -0.06799692 0.078565165 0.024466803 -0.039876644 0.0014309445 0.00073050486
-0.008543442 0.09884485 -0.00032830983 0.004738901 -0.041182797 -0.11132864 -0.0475982 -0.019830136
-0.074445695 -0.020772144 -0.06864854 0.028721524 0.12923265 0.0070414376 0.033891022 -0.0047959434
0.060541797 0.020058665 -0.16267835 -0.04683341 0.020605845 -0.049583502 -0.019997252 -0.048638895
-0.017543172 0.08207636 -0.05429905 -0.020607494 -0.0015217596 -0.010508556 0.01582156 -0.016375989
0.006332364 0.031990673 0.12431764 0.083841495 -0.04712828 0.020848118 0.09032126 0.0012035773
-0.08954696 -0.06556043 -0.040850047 0.051542457 -0.058660768 -0.054436877 -0.08292013 -0.022155507
0.11949928 0.09878978 -0.040826805 0.09278688 0.029299513 0.088063896 -0.08199006 -0.09138287
0.003617867 -0.05622249 -0.07176373 -0.06664436 -0.050765153 0.055285398 0.03798594 0.00298767
-0.061018154 0.027828254 0.027948827 -0.0110428035 0.034193795 0.05217773 -0.018881125 0.00071107276
-0.016483225 0.13419501 0.06828064 -0.031657293 0.006516166 -0.06153685 0.021545751 -0.07726728
-0.07270412 -0.0013133751 -0.09794796 -0.054333605 0.00871487 0.004726709 0.03532285 0.048743073
0.05358688 0.05890731 0.12545794 0.039491896 0.116544314 -0.016603502 0.038286418 0.0018308759
-0.05448929 -0.04774538 -0.04003041 -0.019289179 0.008384223 0.01693991 0.07007106 0.0054068896
-0.06553333 0.09514476 -0.018275952 -0.01081348 -0.0053843604 0.060199786 -0.048519332 -0.06866363
-0.04574092 0.028808787 0.11641215 0.059049603 -0.019058255 -0.0045922603 -0.057690043 0.025669549
0.0845711 0.013317841 0.11714878 -0.083909586 0.06610353 -0.03217654 -0.051413447 0.012348713
0.013154819 -0.083888344 -0.082334004 0.026676042 0.06927379 0.04469858 -0.043458104 0.0373994
-0.010747909 0.050811477 0.02037021 -0.05285971 -0.007871367 -0.050276726 -0.05168374 0.093399875
-0.010164432 0.014377907 -0.0053120283 -0.06433545 0.034936406 0.058862723 -0.022329375 0.027492428
-0.037696842 -0.017896218 -0.03173955 -0.060754355 0.083890155 0.08359247 0.06011129 -0.056013484
-0.022462217 0.0052423384 0.039400995 0.019005267 -0.0631157 -0.0018185684 -0.06348838 0.017327784
-0.07403195 0.077190325 0.034608733 -0.12558994 0.03378026 0.019308245 0.014155315 -0.007366245
-0.10577773 0.10086859 0.09343393 0.09198408 -0.08020681 0.033594754 0.047309577 -0.010341907
-0.0372493 -0.090447396 -0.057950303 -0.06609831 -0.0124031445 0.064766034 -0.06575803 0.075110786
-0.08017726 -0.053852126 -0.09990676 -0.023922026 0.031031294 -0.09396919 0.002493906 -0.059371382
0.052456066 -0.07985063 0.006843381 0.0631114 0.070618555 0.025331063 -0.008853763 0.04572244
0.038432196 0.104132384 -0.019705268 -0.020985387 0.11588872 -0.046377067 -0.0002724146 -0.017577894
-0.010177857 -0.08224122 -0.043636095 -0.0719888 0.01209057 -0.0818974 0.018511917 -0.017797777
-0.01783357 -0.03700877 0.009416041 -0.11905649 0.074271806 0.016434334 -0.07100229 -0.026632953
00000000: 83d2 1fbd 23c8 f8bc a56d 733d c17d 303b
00000010: 74f0 ea3c c80b b53b 956b 32bd 865c fd3c
00000020: fe8c 14bd 80fa bc3d 34be ce3b 6bc9 b4bc
00000030: 4d6b b6bc 2dae e3bc bfbb 223d a1ee b93d
00000040: 7ccd a93d 41c0 3fbc f841 8bbd c6e6 a03d
00000050: 9b6e c83c b155 23bd 888e bb3a 5a7f 3f3a
00000060: cbf9 0bbc 2b6f ca3d 0021 acb9 c848 9b3b
00000070: 4baf 28bd 4500 e4bd 55f6 42bd cf72 a2bc
00000080: fc76 98bd 582a aabc 9b97 8cbd 6749 eb3c
00000090: 9055 043e dcbb e63b 50d1 0a3d 4a27 9dbb
000000a0: adfa 773d 1252 a43c 2795 26be 64d4 3fbd
000000b0: 97cd a83c 1218 4bbd 47d1 a3bc 9439 47bd
000000c0: b3b6 8fbc a717 a83d ae68 5ebd 0cd1 a8bc
000000d0: c775 c7ba 142c 2cbc 379c 813c f026 86bc
000000e0: b87f cf3b a708 033d 3f9a fe3d 17b5 ab3d
000000f0: 9509 41bd acc9 aa3c 5afa b83d 5ac1 9d3a
00000100: 6664 b7bd 8c44 86bd 6152 27bd 2f1e 533d
00000110: 4646 70bd 34f9 5ebd 07d2 a9bd 777f b5bc
00000120: 0abc f43d 4c52 ca3d 023a 27bd 0c07 be3d
00000130: 8805 f03c d85a b43d 68ea a7bd f126 bbbd
00000140: bc19 6d3b 8e49 66bd ddf8 92bd d77c 88bd
00000150: 1fef 4fbd f172 623d 2597 1b3d c9cc 433b
00000160: 2cee 79bd 14f8 e33c f0f4 e43c e0ec 34bc
00000170: cb0e 0c3d 51b8 553d 97ac 9abc 4967 3a3a
00000180: d407 87bc 6b6a 093e b8d6 8b3d 14ab 01bd
00000190: 9085 d53b 100e 7cbd b780 b03c 4f3e 9ebd
000001a0: e6e5 94bd 8e25 acba f198 c8bd ea8c 5ebd
000001b0: d0c8 0e3c 82e2 9a3b b1ae 103d d1a6 473d
000001c0: eb7d 5b3d cb48 713d 0c78 003e 41c2 213d
000001d0: c9ae ee3d 1104 88bc 38d2 1c3d 00fa ef3a
000001e0: 2930 5fbd a990 43bd edf6 23bd 5704 9ebc
000001f0: fb5d 093c 91c5 8a3c 6a81 8f3d 472c b13b
00000200: 5736 86bd 42db c23d 73b7 95bc 062b 31bc
00000210: 4a6f b0bb 0d94 763d 35bc 46bd 849f 8cbd
00000220: d55a 3bbd 6800 ec3c 7e69 ee3d ffdd 713d
00000230: 0f20 9cbc ac7a 96bb 654c 6cbd f248 d23c
00000240: 9d33 ad3d 1333 5a3c b3eb ef3d cad8 abbd
00000250: 4a61 873d 8ccb 03bd e896 52bd 4252 4a3c
00000260: 4f87 573c a7cd abbd bb9e a8bd b787 da3c
00000270: 6bdf 8d3d dc15 373d 2001 32bd 1d30 193d
00000280: ff17 30bc b21f 503d 6ddf a63c 6c83 58bd
00000290: e8f6 00bc f8ee 4dbd 54b2 53bd 6f48 bf3d
000002a0: b888 26bc 5091 6b3c 8610 aebb 4ec2 83bd
000002b0: 7a19 0f3d 0a1a 713d 18ec b6bc cd37 e13c
000002c0: 0168 1abd 179b 92bc 5501 02bd 8fd9 78bd
000002d0: 9ace ab3d 8732 ab3d 4237 763d 656e 65bd
000002e0: af02 b8bc ecc7 ab3b f062 213d efb0 9b3c
000002f0: ce42 81bd 085d eeba 3206 82bd fff2 8d3c
00000300: 109e 97bd f615 9e3d e3c1 0d3d a69a 00be
00000310: 2b5d 0a3d 532c 9e3c b2eb 673c 8b60 f1bb
00000320: ffa1 d8bd 3194 ce3d 4a5a bf3d 2662 bc3d
00000330: 7843 a4bd a79a 093d b0c7 413d 1a71 29bc
00000340: b992 18bd 7c3c b9bd 4c5d 6dbd 8d5e 87bd
00000350: 8f36 4bbc 0ea4 843d 25ac 86bd afd3 993d
00000360: fa33 a4bd 0c94 5cbd ea9b ccbd 20f8 c3bc
00000370: 5735 fe3c eb72 c0bd cd70 233b 682f 73bd
00000380: 2cdc 563d ba88 a3bd 713e e03b 8d40 813d
00000390: 76a0 903d 1783 cf3c 600f 11bc 7447 3b3d
000003a0: 146b 1d3d 5c43 d53d f16c a1bc 8ce9 abbc
000003b0: 1157 ed3d e1f5 3dbd ded2 8eb9 84ff 8fbc
000003c0: 07c1 26bc 166e a8bd c3bb 32bd dd6e 93bd
000003d0: 8717 463c d3b9 a7bd 4ea6 973c a5cc 91bc
000003e0: b517 92bc 8296 17bd bd45 1a3c e4d3 f3bd
000003f0: d11b 983d 4ca1 863c a669 91bd 5a2d dabc

conv2.bias f4 [32]
-0.17537905 -0.023231689 -0.04565091 -0.020462409 0.052024405 -0.12570062 -0.08877652 -0.20799626
-0.11637031 -0.098131515 -0.15698557 -0.00063292147 -0.035092074 -0.22730115 -0.002167892 -0.047456987
-0.070160985 -0.13838536 -0.092783555 -0.13210504 0.05512131 -0.095534734 0.006273087 -0.09335173
0.09134965 0.0769077 -0.0736492 -0.027720517 0.023901425 -0.06347191 -0.03196114 -0.012659562
00000000: 9196 33be 6250 bebc 73fc 3abd c8a0 a7bc
00000010: 8b17 553d aab7 00be 77d0 b5bd f9fc 54be
00000020: 8f53 eebd 2df9 c8bd d3c0 20be a4ea 25ba
00000030: b5bc 0fbd a2c1 68be 3113 0ebb 4262 42bd
00000040: 90b0 8fbd e4b4 0dbe 4e05 bebd 8b46 07be
00000050: e2c6 613d b7a7 c3bd 788e cd3b 312f bfbd
00000060: 8615 bb3d c981 9d3d 64d5 96bd 2316 e3bc
00000070: eccc c33c 90fd 81bd afe9 02bd 0d6a 4fbc

batch_norm2.weight f4 [32]
0.91776973 0.9491178 1.0526419 1.0069621 0.9495192 1.1233405 0.94944537 0.9771805
1.0257219 1.0257437 0.9804142 0.902152 0.9790767 1.0876644 0.9564195 0.9329397
0.9868607 0.91229886 1.1405514 1.0855582 0.98548394 0.9846173 0.99096227 0.9256378
0.997812 1.0385798 0.94690776 0.9714827 0.8759939 1.0507056 0.98312765 0.9118996
00000000: f5f2 6a3f 62f9 723f f8bc 863f 22e4 803f
00000010: b113 733f 9fc9 8f3f da0e 733f 8028 7a3f
00000020: db4a 833f 924b 833f 6dfc 7a3f 6ff3 663f
00000030: c5a4 7a3f 9638 8b3f e9d7 743f 23d5 6e3f
00000040: e7a2 7c3f 6b8c 693f 97fd 913f 92f3 8a3f
00000050: ad48 7c3f e10f 7c3f b4af 7d3f 99f6 6c3f
00000060: 9b70 7f3f 2ff0 843f 8c68 723f 17b3 783f
00000070: 2341 603f 857d 863f 41ae 7b3f 4172 693f

batch_norm2.bias f4 [32]
-0.08279538 -0.076263346 0.11586698 0.023922293 -0.09567875 -0.15064453 -0.08351198 -0.053226557
0.14243533 -0.025649697 -0.14625166 0.24417746 0.082354054 -0.23331153 0.14921129 -0.2576301
-0.0015756066 -0.23739967 0.18361679 0.30470422 -0.07207309 -0.024842927 -0.056214847 0.088392794
-0.3113811 -0.24990888 -0.10523272 0.07115583 0.10668677 0.1462472 0.051509473 -0.057286046
00000000: a090 a9bd f52f 9cbd ab4b ed3d aff8 c33c
00000010: 38f3 c3bd 8f42 1abe 5408 abbd 1704 5abd
00000020: 91da 113e 501f d2bc ffc2 15be a809 7a3e
00000030: 3ea9 a83d 38e9 6ebe d8ca 183e 18e8 83be
00000040: 9684 ceba e618 73be 0a06 3c3e 3102 9c3e
00000050: 0e9b 93bd 6583 cbbc 8a41 66bd 4807 b53d
00000060: 586d 9fbe 1de8 7fbe 4184 d7bd 26ba 913d
00000070: 987e da3d d3c1 153e 99fb 523d c6a4 6abd

batch_norm2.running_mean f4 [32]
0.3916864 0.5960611 0.40082642 0.70519215 0.46880355 0.33676112 0.5183895 0.34036872
0.58863896 0.2913569 0.45723033 0.74337345 0.5998207 0.28582895 0.5298417 0.35413644
0.62249976 0.2954376 0.5366629 0.27444378 0.779874 0.54973036 0.6051774 0.5663625
0.63767993 0.7456745 0.5348003 0.36555022 0.5901003 0.47284362 0.5696776 0.44209272
00000000: 1f8b c83e 7697 183f 1f39 cd3e 7987 343f
00000010: 0507 f03e f46b ac3e 2db5 043f cf44 ae3e
00000020: 0bb1 163f bb2c 953e 181a ea3e b94d 3e3f
00000030: d98d 193f 2c58 923e b5a3 073f 5f51 b53e
00000040: 255c 1f3f 9943 973e bd62 093f e583 8c3e
00000050: d3a5 473f 21bb 0c3f e8ec 1a3f 22fd 103f
00000060: fe3e 233f 86e4 3e3f ace8 083f 6629 bb3e
00000070: d010 173f 8f18 f23e 64d6 113f fa59 e23e

batch_norm2.running_var f4 [32]
0.6537488 0.4725346 0.27019107 0.7257568 0.31021377 0.13805854 0.49170598 0.33869058
0.40982082 0.14649375 0.7877476 0.7591844 0.87025726 0.30750686 0.23529899 0.19540113
1.1664073 0.2623465 0.34232062 0.15373673 0.8050762 0.5073837 0.52719396 0.6704238
0.3422302 0.43183213 0.7550166 0.20352992 0.47959483 0.27925685 0.6184423 0.29415873
00000000: 155c 273f 0ef0 f13e 7c56 8a3e 33cb 393f
00000010: 57d4 9e3e 385f 0d3e e3c0 fb3e da68 ad3e
00000020: 09d4 d13e 7502 163e d4a9 493f e959 423f
00000030: 2ec9 5e3f 8a71 9d3e 38f2 703e 3c17 483e
00000040: d64c 953f 4852 863e a644 af3e 296d 1d3e
00000050: 7919 4e3f e6e3 013f 2ff6 063f e5a0 2b3f
00000060: cc38 af3e 1a19 dd3e c548 413f 266a 503e
00000070: 748d f53e c1fa 8e3e 3c52 1e3f f99b 963e

conv3.weight f4 [64, 32, 3, 3]
0.0063061346 0.021919284 -0.016454412 -0.027274666 0.06870121 -0.0024071701 0.040243097 -0.001169065
-0.06695431 -0.04088579 0.021508418 -0.01840495 0.033302322 0.03118051 -0.0397602 -0.030831624
0.07314561 0.0015077061 -0.006883426 0.0016429668 0.011433574 -0.06401828 -0.033301193 -0.058658876
0.043690417 0.04126028 0.062563695 -0.00032339708 0.062487006 0.060043134 0.013190052 0.051824722
-0.02626687 -0.031382337 -0.023523413 0.0634038 0.052385096 0.054335713 0.06626367 -0.024130736
0.016972385 -0.0113286795 0.041860994 0.023568708 -0.03661182 0.08094522 0.07048104 0.09529012
-0.014006598 0.009179837 0.021269556 -0.005351764 -0.016196044 -0.06993227 0.030714886 0.09083585
0.0059242253 -0.03259072 0.017668555 -0.015198412 -0.04416089 0.039236158 0.008361965 0.06546904
-0.022471823 0.027551025 -0.009398618 0.040017117 -0.012882421 -0.03819622 0.03360341 -0.07077905
-0.15115133 -0.13169655 -0.11953546 0.08156683 0.014047095 0.04197472 -0.011265297 -0.07124837
-0.031414878 -0.022487767 0.06796407 0.033582147 -0.0424554 -0.050971296 -0.07670278 0.04213412
0.019255638 0.019120218 -0.017883068 0.03801635 -0.0423555 -0.018601641 -0.027060485 0.0044464883
0.035392046 -0.049841672 0.033691656 0.028177781 0.05156515 0.058992993 -0.0411368 0.0014136167
0.059463188 -0.09559917 -0.08297929 -0.014084996 -0.034762952 0.030674456 -0.030041905 0.041163433
-0.031724047 0.019828724 -0.07863559 -0.09577705 0.016786058 0.13828716 0.07168281 0.073145024
0.04666703 0.100405335 -0.008239814 -0.020567793 0.019943789 0.05289901 -0.038588468 -0.07628618
-0.0397157 -0.020599127 -0.028360752 0.0494246 0.03745781 -0.030702226 -0.020770863 0.058530785
-0.015657485 0.08641295 -0.021551324 -0.06808021 0.018465575 0.017483613 0.036795534 0.010794465
-0.0035060786 -0.029846808 0.0112798065 0.03550812 -0.039176624 0.012228037 0.025423123 -0.0150882965
0.014167545 -0.051381014 0.055445217 0.0027753955 -0.03048315 0.03811769 0.056088798 -0.0028754363
0.031548645 0.021279715 -0.15349078 -0.079567805 -0.0708026 0.0192618 0.05718519 0.06964283
-0.15206398 -0.1116664 -0.15088026 0.008904058 0.015578895 -0.035471726 -0.038441528 -0.01243521
-0.04813099 0.015977733 0.006734681 0.002985621 0.06136679 0.03686129 0.03520297 -0.028801886
-0.013536657 0.029343436 -0.05036939 0.032774627 0.01218346 0.03412161 -0.03951105 0.02943814
-0.06515819 -0.08352366 0.04500282 -0.05265682 -0.056810338 -0.052933298 0.0081401 -0.0016756642
-0.037510917 0.036147166 0.012943591 -0.014095206 -0.015943222 0.010846953 -0.05618499 -0.04075885
-0.105235755 -0.034817353 -0.03174512 -0.014514988 -0.014169791 -0.024753835 0.0118751 0.052167326
0.06688088 0.055536844 0.049350403 -0.020440083 -0.06450043 -0.0025626286 0.020620573 0.061966363
0.03222638 -0.002331927 0.025537334 -0.026570952 0.025149904 0.052333992 0.025108127 -0.01745805
0.01925372 -0.0061879214 -0.010143193 -0.0398495 0.069146454 0.04339765 0.053821772 -0.024389371
-0.013055259 -0.013547356 -0.03967008 0.025108375 -0.00173743 0.09555316 -0.058193497 -0.03410544
-0.016494587 -0.038456175 -0.042279076 0.06700391 0.04693144 -0.043053623 0.0047013713 -0.027928853
00000000: b1a3 ce3b 1290 b33c 67cb 86bc 1f6f dfbc
00000010: 38b3 8c3d 9dc1 1dbb f2d5 243d 503b 99ba
00000020: 571f 89bd dc77 27bd 6c32 b03c fac5 96bc
00000030: 0468 083d 456e ff3c 97db 22bd 9a92 fcbc
00000040: 5ecd 953d 399e c53a 5d8e e1bb d158 d73a
00000050: e353 3b3c 041c 83bd d566 08bd 4a44 70bd
00000060: b9f4 323d 8a00 293d 6521 803d 9f8d a9b9
00000070: 60f2 7f3d caef 753d 161b 583c 2946 543d
00000080: 9e2d d7bc c48a 00bd 2cb4 c0bc dad9 813d
00000090: c191 563d 208f 5e3d 3fb5 873d d2ad c5bc
000000a0: ac09 8b3c ed9b 39bc 6f76 2b3d 2a13 c13c
000000b0: 47f6 15bd 9cc6 a53d 5d58 903d 7727 c33d
000000c0: ee7b 65bc 0767 163c 7e3d ae3c da5d afbb
000000d0: 91ad 84bc a638 8fbd c99d fb3c 2508 ba3d
000000e0: 0120 c23b d97d 05bd a5bd 903c c302 79bc
000000f0: 0de2 34bd 18b6 203d a000 093c a214 863d
00000100: d416 b8bc b0b2 e13c a9fc 19bc fde8 233d
00000110: ca10 53bc a473 1cbd bba3 093d 9bf4 90bd
00000120: 6ac7 1abe 76db 06be 02cf f4bd 830c a73d
00000130: c925 663c afed 2b3d 1592 38bc aaea 91bd
00000140: e3ac 00bd 4438 b8bc bf30 8b3d 6f8d 093d
00000150: b7e5 2dbd 47c7 50bd 5916 9dbd d494 2c3d
00000160: 00be 9d3c 01a2 9c3c 837f 92bc 08b7 1b3d
00000170: f67c 2dbd 7862 98bc f3ad ddbc d9b3 913b
00000180: 40f7 103d c826 4cbd 4300 0a3d 17d5 e63c
00000190: fb35 533d a3a2 713d 107f 28bd 1b49 b93a
000001a0: ac8f 733d 7fc9 c3bd 0cf1 a9bd c1c4 66bc
000001b0: 9963 0ebd ff48 fb3c 711a f6bc fd9a 283d
000001c0: 13f1 01bd d96f a23c b20b a1bd c226 c4bd
000001d0: ea82 893c 269b 0d3e 70ce 923d 0fcd 953d
000001e0: ed25 3f3d 50a1 cd3d 4900 07bc ca7d a8bc
000001f0: 2861 a33c a2ac 583d f10e 1ebd ee3b 9cbd
00000200: eeac 22bd 80bf a8bc cf54 e8bc 7371 4a3d
00000210: 5c6d 193d 3c83 fbbc a827 aabc fabd 6f3d
00000220: 2044 80bc 46f9 b03d 678c b0bc a36d 8bbd
00000230: 1e45 973c cb39 8f3c eab6 163d 45db 303c
00000240: 3dc6 65bb 4b81 f4bc f0ce 383c f670 113d
00000250: ab77 20bd 1b58 483c 2744 d03c e734 77bc
00000260: fe1e 683c e674 52bd 861a 633d 69e3 353b
00000270: cdb7 f9bc 4b21 1c3d 5ebd 653d d171 3cbb
00000280: 2739 013d cc52 ae3c b02c 1dbe 72f4 a2bd
00000290: f400 91bd ecca 9d3c 053b 6a3d e6a0 8e3d
000002a0: a9b6 1bbe 5bb1 e4bd 5b80 1abe 53e2 113c
000002b0: 9f3e 7f3c cd4a 11bd dd74 1dbd 0dbd 4bbc
000002c0: 0025 45bd bce3 823c 99ae dc3b 69aa 433b
000002d0: be5b 7b3d ddfb 163d fd30 103d eff1 ebbc
000002e0: dbc8 5dbc a561 f03c 2250 4ebd b03e 063d
000002f0: 239d 473c 1ac3 0b3d 57d6 21bd 4128 f13c
00000300: a871 85bd 740e abbd e154 383d adae 57bd
00000310: f5b1 68bd 96d0 58bd 0e5e 053c f6a1 dbba
00000320: 0ca5 19bd 0d0f 143d 5b11 543c 94ef 66bc
00000330: 5c9b 82bc 6bb7 313c 3b22 66bd c0f2 26bd
00000340: d885 d7bd a49c 0ebd 2c07 02bd 46d0 6dbc
00000350: 6928 68bc 8ec8 cabc c88f 423c 68ad 553d
00000360: d8f8 883d 9a7a 633d a623 4a3d f671 a7bc
00000370: cd18 84bd c6f1 27bb 7aec a83c 71d0 7d3d
00000380: cfff 033d 3ed3 18bb ac33 d13c 53ab d9bc
00000390: 2c07 ce3c 2b5c 563d 8faf cd3c 2f04 8fbc
000003a0: fab9 9d3c 0cc4 cabb a32f 26bc 3b39 23bd
000003b0: a89c 8d3d bcc1 313d 3874 5c3d 38cc c7bc
000003c0: bae5 55bc bbf5 5dbc 187d 22bd 14b0 cd3c
000003d0: 7aba e3ba 60b1 c33d 4e5c 6ebd 25b2 0bbd
000003e0: a81f 87bc 3984 1dbd d32c 2dbd 5939 893d
000003f0: 2e3b 403d ff58 30bd f60d 9a3b 0dcb e4bc

conv3.bias f4 [64]
-0.21516226 -0.20613138 -0.034510076 -0.20490344 -0.12477539 -0.18965857 -0.21491753 -0.23073046
-0.14766301 -0.21606077 0.089941196 -0.23767057 -0.19134572 -0.120196104 -0.24120265 -0.13333802
-0.21151897 -0.14006136 -0.19482464 -0.11598416 -0.23330435 -0.10229887 -0.18136626 -0.10490816
-0.15496682 -0.15182394 0.019676972 -0.12379713 -0.14173089 -0.27641413 -0.13461106 -0.20068055
-0.06408909 -0.12911054 -0.17273471 -0.11060481 -0.18363579 -0.11234437 -0.118057095 -0.2413336
-0.25054163 -0.14887848 -0.2129715 -0.16732986 -0.23254931 -0.13004842 -0.23886156 -0.23905902
-0.31091443 -0.21657127 0.0066521466 -0.12252165 -0.15324324 -0.26700142 -0.21500257 -0.013151683
-0.14389893 -0.051821485 -0.20732674 -0.15332885 -0.18693835 -0.18283716 -0.2298375 -0.28394893
00000000: 7f53 5cbe 1b14 53be 705a 0dbd 35d2 51be
00000010: 3d8a ffbd db35 42be 5713 5cbe 9b44 6cbe
00000020: f934 17be 093f 5dbe 1733 b83d ea5f 73be
00000030: 22f0 43be 6029 f6bd d4fd 76be c389 08be
00000040: 6e98 58be 3f6c 0fbe 1c80 47be 1a89 edbd
00000050: 56e7 6ebe 1282 d1bd 14b8 39be 17da d6bd
00000060: 9faf 1ebe bc77 1bbe 9a31 a13c 5a89 fdbd
00000070: e721 11be 2786 8dbe 7bd7 09be 347f 4dbe
00000080: 2441 83bd 8e35 04be 5ee1 30be c684 e2bd
00000090: 050b 3cbe ce14 e6bd ebc7 f1bd 2820 77be
000000a0: fe46 80be 9a73 18be 3315 5abe 8558 2bbe
000000b0: 6821 6ebe 6a2b 05be 2098 74be e3cb 74be
000000c0: 2d30 9fbe dcc4 5dbe 40fa d93b a1ec fabd
000000d0: cceb 1cbe 69b4 88be a229 5cbe 287a 57bc
000000e0: 3e5a 13be c442 54bd 764d 54be 3d02 1dbe
000000f0: c46c 3fbe aa39 3bbe 865a 6bbe c161 91be

batch_norm3.weight f4 [64]
1.3876216 1.393837 1.3954706 1.3219377 1.3448187 1.3692358 1.2618767 1.4605122
1.3741375 1.4409425 1.2457281 1.3839614 1.2826517 1.1885784 1.4876122 1.3812798
1.4019786 1.379349 1.4465384 1.5015863 1.3330053 1.3293058 1.3586105 1.3216364
1.2080836 1.3245108 1.3366672 1.3500844 1.2089431 1.2418424 1.3155966 1.4306241
1.2695788 1.3213034 1.4205337 1.2213231 1.317776 1.3408419 1.4149086 1.2886361
1.3432237 1.39443 1.3225337 1.4092915 1.3259777 1.3695414 1.2617786 1.4403262
1.3716416 1.4011459 1.2651244 1.3671119 1.3129501 1.3842858 1.4269103 1.2642988
1.2199268 1.3180476 1.2439274 1.314615 1.3954071 1.3713745 1.3367037 1.284126
00000000: 969d b13f 4069 b23f c89e b23f 4135 a93f
00000010: 0523 ac3f 1e43 af3f 2d85 a13f 10f2 ba3f
00000020: bde3 af3f ce70 b83f 0574 9f3f a625 b13f
00000030: ee2d a43f 5623 983f 146a be3f c7cd b03f
00000040: 0974 b33f 828e b03f 2c28 b93f fb33 c03f
00000050: eb9f aa3f b126 aa3f f3e6 ad3f 622b a93f
00000060: 7ca2 9a3f 9289 a93f e917 ab3f 91cf ac3f
00000070: a6be 9a3f b1f4 9e3f 7865 a83f b11e b73f
00000080: 8f81 a23f 7820 a93f 0cd4 b53f 5154 9c3f
00000090: e2ac a83f b5a0 ab3f ba1b b53f 07f2 a43f
000000a0: c1ee ab3f af7c b23f c948 a93f aa63 b43f
000000b0: a3b9 a93f 224d af3f f681 a13f 9c5c b83f
000000c0: f491 af3f c058 b33f 99ef a13f 86fd ae3f
000000d0: c00e a83f 4730 b13f ffa4 b63f 8bd4 a13f
000000e0: 9026 9c3f c9b5 a83f 0339 9f3f 4e45 a83f
000000f0: b39c b23f 3389 af3f 1b19 ab3f 3e5e a43f

batch_norm3.bias f4 [64]
0.051913746 0.053138167 0.010513788 0.045806073 0.012543767 0.029175762 0.055495653 0.053238634
0.025973154 0.058401845 -0.018120918 0.055899695 -0.07325719 -0.07312694 -0.057070594 0.018383391
0.034864496 0.0429631 0.058112614 0.0315799 0.011883032 0.034596264 0.04629681 0.07208088
0.08088502 0.00083163485 0.017398437 0.018269522 0.09606931 0.078280635 0.06711394 0.054635957
-0.0054715024 -0.038900558 0.0358717 0.10252842 -0.0026506153 0.097165115 0.031837158 0.07973961
-0.091286905 0.050264154 -0.071399026 0.060135998 -0.07234672 0.03756545 -0.07591437 0.057974644
-0.076682806 0.06411076 -0.017903412 0.07297827 -0.07961538 0.040822756 0.051561408 -0.061948013
-0.010284503 0.010864121 -0.07041924 0.016360587 0.06840941 0.0701241 -0.0782081 0.083182834
00000000: 82a3 543d 68a7 593d 0642 2c3c 269f 3b3d
00000010: 5f84 4d3c 0202 ef3c 694f 633d c110 5a3d
00000020: a7c5 d43c c636 6f3d 5272 94bc 14f7 643d
00000030: de07 96bd 94c3 95bd dbc2 69bd c498 963c
00000040: 13ce 0e3d 13fa 2f3d 7e07 6e3d ed59 013d
00000050: 0cb1 423c d0b4 0d3d b9a1 3d3d 249f 933d
00000060: 0ca7 a53d 1202 5a3a 2b87 8e3c f7a9 953c
00000070: fdbf c43d 9951 a03d 0973 893d f4c9 5f3d
00000080: 4a4a b3bb 3156 1fbd 34ee 123d 6cfa d13d
00000090: f2b5 2dbb 81fe c63d ae67 023d 854e a33d
000000a0: a1f4 babd c9e1 4d3d a739 92bd 2a51 763d
000000b0: 842a 94bd 3bde 193d fe78 9bbd d276 6d3d
000000c0: e00b 9dbd 814c 833d 2daa 92bc a275 953d
000000d0: 630d a3bd c335 273d 0e32 533d 33bd 7dbd
000000e0: 5580 28bc 6dff 313c f637 90bd a306 863c
000000f0: 3c1a 8c3d 399d 8f3d 912b a0bd c35b aa3d

batch_norm3.running_mean f4 [64]
0.44277823 0.52135175 0.5936863 0.5507237 0.43360075 0.6198408 0.80152225 0.47069368
0.5052915 0.44354165 0.83313465 0.51499707 0.31215698 0.60424244 0.3405219 0.5404984
0.44264627 0.5805051 0.5337277 0.5621333 0.41262317 0.6271173 0.5858467 0.63049805
1.044817 0.55058056 0.7414921 0.6549392 0.7309257 0.72203636 0.8549339 0.45951888
0.7440382 0.4836389 0.47727257 0.56563604 0.3886849 0.5090699 0.6037398 0.55835164
0.7972384 0.49397793 0.4301805 0.47292042 0.3954018 0.7324532 0.46703377 0.444841
0.8117239 0.451271 0.92323065 0.60620254 0.49416584 0.4245755 0.48748726 0.6492064
0.41463858 0.48054805 0.38508052 0.5204185 0.5394856 0.5118865 0.39161918 0.7376034
00000000: d4b3 e23e 4f77 053f d3fb 173f 3afc 0c3f
00000010: eb00 de3e e3ad 1e3f 9030 4d3f c3fe f03e
00000020: c95a 013f e417 e33e 5048 553f d9d6 033f
00000030: 0ad3 9f3e a2af 1a3f e358 ae3e 1a5e 0a3f
00000040: 88a2 e23e fb9b 143f 61a2 083f f8e7 0f3f
00000050: 5843 d33e c28a 203f 0dfa 153f 5268 213f
00000060: 90bc 853f d9f2 0c3f 6dd2 3d3f 18aa 273f
00000070: f21d 3b3f 60d7 383f f3dc 5a3f 0f46 eb3e
00000080: 4a79 3e3f 859f f73e 125d f43e 86cd 103f
00000090: b501 c73e 6852 023f b18e 1a3f 22f0 0e3f
000000a0: d117 4c3f adea fc3e 9e40 dc3e a022 f23e
000000b0: 1b72 ca3e 0e82 3b3f 0d1f ef3e 33c2 e33e
000000c0: 23cd 4f3f fe0c e73e d858 6c3f 1730 1b3f
000000d0: 4e03 fd3e f661 d93e ee97 f93e 6432 263f
000000e0: 824b d43e 650a f63e 4629 c53e 263a 053f
000000f0: ba1b 0a3f fe0a 033f 4f82 c83e 94d3 3c3f

batch_norm3.running_var f4 [64]
0.61950505 0.97073275 0.86695397 0.7314585 0.59981257 0.7688921 1.0244296 0.7755554
0.48747787 0.7848686 0.60944337 0.69761294 0.2538467 0.70866495 0.30932552 0.9808242
0.68750024 1.377331 0.83152366 0.9282956 0.8218633 0.7030136 0.8170406 1.1613259
1.2048628 0.93755704 1.3287845 0.71208096 1.5955337 0.81444174 0.9233557 0.7368376
0.9881317 0.5075287 0.91192234 1.0154649 0.4747819 0.7647857 1.3190402 0.6157648
0.86023825 0.8086543 0.46975845 0.8268105 0.44640702 0.83353597 0.5424054 0.78935987
0.9235809 0.72925484 0.9217639 0.9281113 0.60201824 0.40893236 0.81871766 0.732257
0.6865426 0.34490156 0.3520307 0.8111976 0.85715634 0.77335614 0.39902675 0.829188
00000000: e297 1e3f f181 783f b2f0 5d3f dd40 3b3f
00000010: 518d 193f 1dd6 443f 8220 833f cc8a 463f
00000020: b396 f93e 26ed 483f 7b04 1c3f c396 323f
00000030: 32f8 813e 116b 353f ea5f 9e3e 4b17 7b3f
00000040: 0400 303f 624c b03f bcde 543f c8a4 6d3f
00000050: a265 523f b3f8 333f 9329 513f 54a6 943f
00000060: f238 9a3f bd03 703f 9c15 aa3f f04a 363f
00000070: 733a cc3f 417f 503f 0a61 6c3f 64a1 3c3f
00000080: 33f6 7c3f 67ed 013f be73 693f c1fa 813f
00000090: 9d16 f33e ffc8 433f 4fd6 a83f c3a2 1d3f
000000a0: 9338 5c3f f803 4f3f 2e84 f03e daa9 533f
000000b0: 768f e43e 9d62 553f 15db 0a3f 7d13 4a3f
000000c0: cc6f 6c3f 72b0 3a3f b8f8 6b3f b498 6d3f
000000d0: de1d 1a3f 955f d13e 7b97 513f 3275 3b3f
000000e0: 41c1 2f3f f096 b03e 5e3d b43e a5aa 4f3f
000000f0: 996e 5b3f abfa 453f 3c4d cc3e aa45 543f

fc.weight f4 [3, 64]
-0.24636628 -0.23537003 0.40966907 0.21526507 0.37898168 0.27133143 0.39439026 -0.1542021
0.38249183 -0.20626858 0.33420658 0.36570996 -0.31489384 -0.2121912 -0.48566633 0.26225635
-0.25741366 -0.07875525 -0.16991118 -0.24288298 -0.21436247 0.39068305 0.22686195 -0.04571076
0.1749587 0.39850155 0.35697752 0.37543336 -0.024667582 0.20080408 0.3270817 -0.13241784
0.3400047 -0.17307071 -0.15853351 0.069560975 0.41160324 -0.14071907 -0.2758696 0.27262938
-0.22983956 -0.24063128 -0.19979014 -0.13748698 -0.3532853 0.41727918 -0.15833274 -0.103444874
-0.11969283 -0.16192248 0.2526347 -0.11263044 -0.1995342 0.21420635 0.3039517 0.034769002
-0.14490974 0.3633617 0.031227117 0.2719338 -0.058974333 -0.07465157 -0.30969584 0.2571756
0.43693194 0.4490951 -0.060850624 -0.1438439 -0.18697804 -0.1516312 0.09489429 0.38996458
-0.1591282 0.3809879 -0.2511144 -0.036226198 -0.23709427 -0.23279056 -0.16017047 -0.16616072
0.41699353 0.36027983 0.35310984 0.2737502 0.36819038 -0.093971476 -0.10429305 0.39985147
0.20532621 -0.22367296 -0.1029695 -0.102368385 0.30862078 0.0017069775 -0.0008922944 0.41960943
-0.14890242 0.040561385 0.45674437 0.3113652 -0.13333099 0.30813226 0.32624578 0.04978815
-0.20199375 0.3171454 -0.13386905 0.47068498 -0.23962334 0.05123899 -0.21832623 0.4662284
-0.28325135 0.37701708 -0.2525186 0.3818055 -0.050847527 -0.14762565 -0.1800669 -0.3466418
0.3045095 -0.25000155 -0.14537084 -0.19848888 0.44832894 0.4413329 -0.124825366 0.07607998
-0.2850722 -0.27302724 -0.057074953 -0.20959926 -0.1710735 -0.26038277 -0.179265 -0.15486093
-0.25739223 -0.24626133 0.030606035 -0.15733346 0.30523875 0.27278614 0.29873157 -0.1756646
-0.14814056 -0.023256322 -0.20914896 -0.261198 -0.016729033 -0.21797273 -0.2227406 -0.14910439
-0.21886505 -0.09277257 -0.0700874 -0.13711308 -0.23338054 -0.25767183 -0.24854009 -0.1459707
-0.0051342146 0.25945327 -0.07781725 -0.22127786 -0.031465445 -0.29781258 -0.15803948 -0.21950266
0.4018702 -0.23407315 0.29335874 -0.2119821 0.32161492 -0.052195534 0.3107921 -0.16017425
0.41966984 -0.21448399 -0.0076217274 -0.2607261 0.33195022 -0.28289542 -0.27405557 0.30222967
0.06319628 -0.19166899 0.2956076 -0.20308298 -0.15878089 -0.22079895 0.39265057 -0.27008286
00000000: 7147 7cbe d704 71be 25c0 d13e 726e 5c3e
00000010: e309 c23e f4eb 8a3e 85ed c93e 28e7 1dbe
00000020: f8d5 c33e 1238 53be 201d ab3e 563e bb3e
00000030: c439 a1be a648 59be 42a9 f8be 7746 863e
00000040: b9cb 83be 6f4a a1bd 32fd 2dbe 51b6 78be
00000050: d681 5bbe 9c07 c83e 804e 683e 353b 3bbd
00000060: 6028 333e 6508 cc3e c2c5 b63e cd38 c03e
00000070: ab13 cabc 969f 4d3e 4177 a73e 8b98 07be
00000080: 1915 ae3e 7339 31be 9c56 22be fc75 8e3d
00000090: a9bd d23e a918 10be c83e 8dbe 1496 8b3e
000000a0: 105b 6bbe 0c68 76be c995 4cbe 63c9 0cbe
000000b0: d0e1 b4be 9ea5 d53e fa21 22be e8da d3bd
000000c0: 8421 f5bd 02cf 25be 5659 813e caaa e6bd
000000d0: b152 4cbe e958 5b3e 8f9f 9b3e f169 0e3d
000000e0: 3863 14be 8b0a ba3e 03d0 ff3c e83a 8b3e
000000f0: 128f 71bd ece2 98bd 7490 9ebe 85ac 833e
00000100: 8bb5 df3e cbef e53e 813e 79bd d14b 13be
00000110: 2c77 3fbe 3645 1bbe f057 c23d 70a9 c73e
00000120: 81f2 22be d910 c33e 1192 80be ec61 14bd
00000130: d7c8 72be a660 6ebe ba03 24be 0926 2abe
00000140: 2d80 d53e 9976 b83e d0ca b43e fc28 8c3e
00000150: 7383 bc3e 1e74 c0bd 9897 d5bd 55b9 cc3e
00000160: 0941 523e 860a 65be ace1 d2bd 84a6 d1bd
00000170: 8b03 9e3e a9bc df3a dde8 69ba 0cd7 d63e
00000180: e079 18be b223 263d 66da e93e 426b 9f3e
00000190: eb87 08be 83c3 9d3e b009 a73e a9ee 4b3d
000001a0: 73d7 4ebe e260 a23e f814 09be 9ffd f03e
000001b0: d25f 75be fadf 513d e990 5fbe 7db5 ee3e
000001c0: 5206 91be 6208 c13e 1e4a 81be 037c c33e
000001d0: 7f45 50bd 2e2b 17be 7563 38be 097b b1be
000001e0: abe8 9b3e 3400 80be 18dc 14be ab40 4bbe
000001f0: 5f8b e53e 63f6 e13e 71a4 ffbd d2cf 9b3d
00000200: fcf4 91be 3aca 8bbe 6dc7 69bd 30a1 56be
00000210: e42d 2fbe e450 85be 3f91 37be dd93 1ebe
00000220: eac8 83be ee2b 7cbe 82b9 fa3c 061c 21be
00000230: 4148 9c3e a0aa 8b3e 58f3 983e 6ce1 33be
00000240: 29b2 17be 0b84 bebc 252b 56be bfbb 85be
00000250: 530b 89bc 3e34 5fbe 1d16 64be d2ae 18be
00000260: 291e 60be 8cff bdbd fc89 8fbd 5f67 0cbe
00000270: 4ffb 6ebe 90ed 83be 4b81 7ebe 5879 15be
00000280: ea3c a8bb 0fd7 843e a65e 9fbd aa96 62be
00000290: e9e1 00bd e47a 98be 1ad5 21be 4ec5 60be
000002a0: eec1 cd3e dfb0 6fbe 1e33 963e d611 59be
000002b0: b6aa a43e fcca 55bd 2420 9f3e b804 24be
000002c0: f7de d63e b1a1 5bbe afbf f9bb e47d 85be
000002d0: 61f5 a93e abd7 90be 0351 8cbe d9bd 9a3e
000002e0: 0d6d 813d e044 44be e159 973e fcf4 4fbe
000002f0: 7597 22be 1f19 62be 7f09 c93e 4d48 8abe

fc.bias f4 [3]
-0.037596703 0.085298434 -0.0732539
00000000: 00ff 19bd f2b0 ae3d 2406 96bd
