Algoritmo/classificador_semaforo/cnn/model_last.pth (torch, 104322 bytes, 24 tensors)

batch_norm_input.weight f4 [3]
00000000: 1355 843f 5e52 803f a327 6e3f
1.0338463 1.0025136 0.9302923

batch_norm_input.bias f4 [3]
00000000: baa5 a0bc a767 59bd 81d3 59bd
-0.019610275 -0.053077366 -0.05318022

batch_norm_input.running_mean f4 [3]
00000000: 24dd 3ebf 12e1 2bbf ac4f fdbe
-0.74556184 -0.67140305 -0.49474847

batch_norm_input.running_var f4 [3]
00000000: d5dc 9a3f 15c4 933f 1086 753f
1.2098643 1.1544214 0.9590769

conv1.weight f4 [16, 3, 3, 3]
00000000: 59a7 093e 1c08 133e 026a dcbd be3a c53c
00000010: 1040 2c3e 2307 02be f0ad 5d3e 638b 103e
00000020: 1837 e33b 1421 92bd 0992 a53d 8353 c03d
00000030: 4252 8a3a 2910 ce3d 27e0 35be fbcb d63d
00000040: d92b 153d 826f 1dbe 1735 f3b9 a0df 4e3d
00000050: 9e8e 2dbe 55cd 3abe ef0d b3bd ce30 e83d
00000060: c363 5bbe 596a debc e5e7 1dbc d628 0e3d
00000070: 8140 85bd 4154 a5bd 8879 e23d 0b15 08be
00000080: 61fc 7c3d dcd1 7b3a c9b3 863d 39a4 053e
00000090: 4e23 10be e41a 58be da30 78be eddc be3d
000000a0: 3291 d5bd f2f1 d33b b118 da3d d3b0 533e
000000b0: ef82 a9bd 53b3 673e 9ad4 183d 5be5 89bd
000000c0: 07fe 18bd 7af8 49bd 7701 50bc 3609 2f3e
000000d0: 53ab fc3d 22e7 13be 1bf5 09be 8e08 783d
000000e0: 362d 1fbe 56ae dfbd 1c80 ebbd 6890 c5bd
000000f0: bd44 043d 7794 3d3e 0af1 5e3d 67dd ca3d
00000100: b6dd 283e 00b1 1e3e 263d 9ebd 772b 24bd
00000110: 76c5 97bd 132b 3d3e 4a10 03be 6315 77bd
00000120: 7a96 bfbc 9472 8c3d 50f5 253d bc65 22bd
00000130: c538 4cbe 37f7 003e a4f7 783d f4ff b0bd
00000140: 3651 693d 64d3 6cbe 142e febd ec3f 6abd
00000150: 76c1 1c3e adf1 013e 7b74 013e 3de8 e23d
00000160: 569f 423e af32 b4bd 09c7 053e 1800 093e
00000170: 53f1 4a3c 90c5 40be 4c48 7abe f53b 3b3c
00000180: 6535 5fbe 7695 a5bd 6f7b 0b3e 7a46 c73d
00000190: 8ba3 be3d 9f33 a93d 3cc1 8a3d 6491 7c3d
000001a0: ce03 3cbe c603 f6bc 2114 b33d 4a6f d43c
000001b0: e494 f9bd 046d 423e 876b 16be b319 82bd
000001c0: e9f0 3fbe 23f0 f4bd 4c6e eb3d 76ff 24be
000001d0: 81dd 003e 9331 eb3d 4855 30bd 0e3f ba3c
000001e0: 4038 423c 80a6 0ebe 0ae8 3d3e 55b6 af3d
000001f0: 5906 abbd fe37 debd 794d efbc 31d0 dc3d
00000200: 9c04 9dbc 5e04 1a3e c3b6 d13d 4be4 023e
00000210: cf15 a3bd 32da 00bb 31d5 6a3e aa95 383d
00000220: ae93 b1bd 7f93 5abd ec6d 0f3e 6128 a13d
00000230: 0b06 103e 31a0 d03d 1486 20be 606b 923d
00000240: f329 853d b56e 3c3d b6ed d83d fb30 41bd
00000250: 64d9 c03d 295b 303e af0b 923d 1904 5d3c
00000260: dd2f bbbd 5ba3 22be 7e7f 90bb 98d8 3abe
00000270: 882b 75be 08cd 4abe caa7 6dbd 7417 c1bc
00000280: 0bfd 343d 7d92 a43d b7fe ff3d 49d9 e43d
00000290: 9140 653c 9fb7 dcbd cdb4 dd3d 3060 7bbe
000002a0: fd1b 21bd fc48 4abe 1c17 913d 0018 47bd
000002b0: 096b 683d 307d abbc e183 d63d d9c2 0f3d
000002c0: 7aa0 153e 1548 783e 0d7d 913d d14d 603e
000002d0: d0fa f8bd c183 edbd 6a68 f93c e5e9 97bc
000002e0: 077e 52be 3de6 4abe 259f 65bc 5be3 e7bd
000002f0: 0236 e13d 7695 a7bd 8fb3 c53c dbc0 6bbe
00000300: e6ae 6cbc ab58 2dbe 2251 f63c 8835 8fbe
00000310: 127f 68be 4b5e 4ebe bec7 bd3d b8c2 e13a
00000320: 0888 13bc b166 81bd 09ec c93d d09f 363d
00000330: 193b e23d 1429 a53d 07a9 8bbd 8daa f73d
00000340: e9e1 493d 63e8 c13d b6d6 783c d3f9 dbbd
00000350: b15a fd3d 8b74 e33d 3e96 debd 9a6f bcbd
00000360: 9b08 f3bc 889e ba3c c2fb 183e f349 533e
00000370: 1208 3d3e 55ab 51be f83a 603e 377e 8bbd
00000380: 09c5 85bb 989e c43d daaf f9bc d46c e33d
00000390: 9094 3dbc 040b 1dbe 1c4c b7bd fdc6 003e
000003a0: 1209 e2bd 5aaf 8a3b ea1e 5fbe 7e70 4e3d
000003b0: 7281 37be f5f4 903d 1307 633d 144c c43b
000003c0: bc40 57bd c633 8b3d 7c62 85be 32e2 ad3c
000003d0: 3b85 453e 4840 103d d8e9 ff3d 3122 123e
000003e0: 0ad7 193e 10e4 25be f94f ecbc ccf4 21bd
000003f0: de3a 7bbc e2fa 9fbd b4be c13d 79bb 013e
0.13442744 0.14358562 -0.10762407 0.024075862 0.16821313 -0.12698035 0.21648383 0.14115672
0.006934058 -0.071352154 0.080844946 0.093909286 0.0010553079 0.10061676 -0.17761289 0.10488125
0.03641877 -0.15374568 -0.00046388127 0.050506234 -0.16948935 -0.1824239 -0.08742892 0.11337434
-0.21424775 -0.02715032 -0.0096378075 0.034706913 -0.06506444 -0.08072711 0.110583365 -0.13289277
0.061764125 0.00096061616 0.0657726 0.13050927 -0.14075968 -0.21104008 -0.24237385 0.09319482
-0.104280844 0.006468051 0.10649241 0.20672922 -0.08276927 0.22627 0.037312128 -0.06733199
-0.037351634 -0.04930923 -0.012695662 0.17093357 0.12337365 -0.14443639 -0.13472407 0.060555033
-0.1554459 -0.10921924 -0.11499044 -0.09646684 0.032292116 0.18513666 0.05442909 0.099055104
0.16490826 0.15497208 -0.07726507 -0.040080514 -0.074107096 0.18473463 -0.12799183 -0.06032313
-0.023387183 0.068577915 0.04051715 -0.039647803 -0.19943531 0.12594305 0.060783044 -0.08642569
0.056962214 -0.23127514 -0.124111325 -0.057189867 0.15308174 0.12689848 0.1264209 0.11079452
0.19006094 -0.0879873 0.13064207 0.13378942 0.012386638 -0.18825364 -0.24441642 0.011427869
-0.21797712 -0.08085148 0.13621305 0.09730239 0.09308537 0.08261799 0.06775138 0.061662093
-0.18360826 -0.030031096 0.08744074 0.025931973 -0.12186602 0.18986899 -0.14689456 -0.06352558
-0.18744244 -0.11959865 0.11495647 -0.16113076 0.12584497 0.11484065 -0.04305008 0.022735145
0.011854231 -0.13930702 0.18545547 0.08579699 -0.0835082 -0.108505234 -0.029211747 0.10781897
-0.019167237 0.15040728 0.10239937 0.127824 -0.07963144 -0.0019661305 0.22932889 0.045064606
-0.08670746 -0.05336332 0.14006776 0.0786903 0.14064805 0.10186804 -0.15676147 0.071493864
0.06502142 0.046004016 0.10592215 -0.047165852 0.09416464 0.17222275 0.07131135 0.0134897465
-0.091399886 -0.15882628 -0.0044097295 -0.18246686 -0.23942387 -0.19804776 -0.058021344 -0.023570754
0.044186633 0.08035753 0.12499755 0.11174256 0.013992445 -0.107772104 0.10825501 -0.24548411
-0.039333332 -0.19754404 0.07084486 -0.048606873 0.0567427 -0.020933717 0.10474373 0.03509793
0.14611998 0.24246247 0.0710393 0.21904685 -0.12157214 -0.11597396 0.030445296 -0.018544147
-0.20555888 -0.19814391 -0.014014994 -0.113226615 0.10996629 -0.08182804 0.024133472 -0.23022787
-0.014445996 -0.16928355 0.030067984 -0.2797053 -0.22704723 -0.20153157 0.092666134 0.0017224168
-0.0090046 -0.06318415 0.09859473 0.044586003 0.11046428 0.08064476 -0.06819349 0.12093077
0.04928771 0.094681524 0.01518791 -0.107410096 0.12370814 0.11106213 -0.108685 -0.09200974
-0.02966719 0.022780672 0.14939788 0.20633678 0.1846011 -0.20475514 0.21897495 -0.06811183
-0.0040823263 0.09600562 -0.03047936 0.11104742 -0.011571065 -0.15336233 -0.089500636 0.12575908
-0.11036886 0.0042323293 -0.21789137 0.05040025 -0.17920473 0.07077972 0.05542667 0.0059905145
-0.05255197 0.067969844 -0.260517 0.021226022 0.19289105 0.035217553 0.12495774 0.14270855
0.15023437 -0.1620028 -0.028846728 -0.039540097 -0.015333859 -0.07811524 0.09460202 0.12669171

conv1.bias f4 [16]
00000000: 0c9f 64bd a787 333e a4c3 1f3e 3d82 27bc
00000010: 8c6f 8fbe 52e9 a8be 7053 493e eff7 fbbd
00000020: 3100 5abd c493 963d 4c42 27bd 6a20 acbc
00000030: a8bd f4bc 23a6 79bd 9611 ebbd fbfd 9d3d
-0.05581574 0.17532216 0.15601975 -0.010223922 -0.2801479 -0.3299051 0.19660735 -0.12303149
-0.05322284 0.07352403 -0.04083471 -0.02101155 -0.029875591 -0.060949456 -0.114779636 0.077144586

batch_norm1.weight f4 [16]
00000000: 9d43 873f dc48 6f3f a437 853f 8f7e 473f
00000010: a23e 663f a134 7d3f f997 8c3f 9ae3 4f3f
00000020: dfa0 563f 8989 833f 3d16 463f 9fc8 803f
00000030: d93c 843f 0a8a 6f3f d9d5 873f 1074 873f
1.0567509 0.9347055 1.0407605 0.7792749 0.8993932 0.9890843 1.0983878 0.8120667
0.8383922 1.0276347 0.7737768 1.0061225 1.0331069 0.93570006 1.0612136 1.0582294

batch_norm1.bias f4 [16]
00000000: 15e6 b83d f574 d03d f136 06be 7f63 643d
00000010: a3a4 b33e 285e 9ebd eff1 30be e613 253e
00000020: 344a a13e 5447 7dbe 06a5 ac3d f50f fd3c
00000030: 5a58 34be abce b33d e0dd 65bd 0c06 6a3d
0.0902826 0.10178558 -0.13106896 0.05575895 0.35086545 -0.07732803 -0.1727979 0.16120872
0.31501925 -0.24734241 0.08429913 0.030891398 -0.17611828 0.08779653 -0.0561198 0.057134673

batch_norm1.running_mean f4 [16]
00000000: 1baf 493e 049d c23e ca12 883e 7945 003e
00000010: e8ab 833d 1c42 5a3d 4fb1 9a3e 68c3 a73e
00000020: f4e5 383e e4d1 673e ed7d 063e e40e 523e
00000030: 5125 7c3e b3e4 0a3e 4b65 0a3e b76b 7d3e
0.19695704 0.38010418 0.26576835 0.12526502 0.06429273 0.053285703 0.302134 0.3276627
0.1805647 0.2263866 0.13133974 0.20513493 0.2462361 0.13563804 0.13515203 0.24748121

batch_norm1.running_var f4 [16]
00000000: 14c1 0d3e 3704 f83d bcd1 233d da1d 403d
00000010: 131b 193d d991 163d a2ad ad3d 669b 123e
00000020: 9edc be3d 3171 de3d ada7 513d 2b5a be3d
00000030: a793 123e 64fe 353d b501 cb3d 398a f23d
0.13843185 0.12110179 0.03999494 0.04690347 0.037379336 0.036760185 0.084803835 0.14317092
0.09319423 0.10861433 0.0511853 0.09294542 0.14314137 0.04443206 0.09912435 0.1184277

conv2.weight f4 [32, 16, 3, 3]
00000000: d51f a33b 3235 433d 5d12 283d b692 8c3b
00000010: 8957 ecbc 91f4 3d3d 1c0c 2dbe fd35 b3bd
00000020: c2aa 27bd cf32 fe3c ef57 4e3d 9e6e 313d
00000030: 7104 3bbd 70b2 aabd e030 523d 1c28 a93d
00000040: 91b2 963d c09f 78bd 5710 5abd 1486 a7bd
00000050: 6902 90bd 264e 81bd 519e 00be 25f4 dbbd
00000060: 8926 cdbc 218c d23d 95d1 203e ad64 34bd
00000070: 64a7 883d cddf 1a3d 8871 63bd c094 edbc
00000080: 10df b43d 538d 853c ca17 dfbd c022 89bd
00000090: ff74 21bd 78ec 19bc bf8b b9bd 28ea 813d
000000a0: a4f8 df3c d1bd 4bbd d45a 52bd 2cd8 6839
000000b0: 7ee2 6abd 65a3 67ba 477e 5dbc 5f7f f83d
000000c0: a1da b23c ad45 ab3d 6dae a13d 50f2 12bd
000000d0: 58d5 0cbe c609 9fbd 92b5 01be a500 803d
000000e0: 33db 843d 9c41 4b3d 89d1 26bd 6652 6d3d
000000f0: 758e bb3c bc9c 333d 28a2 333c 2d8e 173d
00000100: 2a00 b5bc c71f b0bd 34e0 cbbb 810f 5a3d
00000110: 8ed7 8b3c dc1b afbd bb2c 35bd 4365 273c
00000120: 2272 80bd 2d51 8ebd 90f1 d3bd a2fc 7abd
00000130: aa84 643b 1d22 393d 4b86 a5bd c8be 853c
00000140: e130 c7bc e164 08be e974 9c3c 904c 443d
00000150: ec22 25bd 85ef c63d 794b 213e 9f16 713d
00000160: e406 f1bd daf5 8abd 974f 92bd ae41 2ebd
00000170: 921b 8abd 21df ac3c 333b a4bd 5742 12bd
00000180: c0b0 31bd aacb 05bc 9b1f 93bd 5772 3ebe
00000190: e619 eabd d4ca bbbd e17c b4bd f802 9bbd
000001a0: 8075 85bd 2ff3 98bc ec29 143d 0981 8cbd
000001b0: d2ff 48bd 6973 113d 71d2 ab3c d18a 9cbd
000001c0: 1ca5 d4bd 57b9 a43c 5e0c 093e e133 ae3d
000001d0: 4aba 023e b89b 183c 27d5 a13d d8bb 2ebd
000001e0: df98 55bd e79d 933d de17 993d 77d9 aabd
000001f0: 9d93 6fbc 2d78 f43c af73 c0bd b5d0 1abe
00000200: 9fd7 b7bc 3606 37bd 1661 0ebe 1590 42bd
00000210: d7a5 9ebd 3741 a4bd 2e6d 8bbd eeab 6cba
00000220: 37d3 d53d 221d f13d 6d96 393d 787c 9bbd
00000230: 72cf d03d 0ab4 b0bd 1908 b0bd d65b 7abd
00000240: ef2d 92bd 913b f43d afc4 813d 3813 04be
00000250: b326 183a c022 293d 15b3 8abd ddc4 073d
00000260: 629e 33bc 1ac2 a0bd e703 32bd b9f5 bfbd
00000270: 4d8d d5bd e924 963b 2c33 8c3d 0f98 12bd
00000280: 8e6d f53c 5ae2 9ebd f4d6 473c 4c43 febc
00000290: d316 773c 28f6 7f39 a0b8 4a3b 9652 41bc
000002a0: f3ab 503d b1ef d5bd e966 debd 92ad 0cbd
000002b0: 966b 793c 8ba5 3bbc 1258 a4bd 9192 12bd
000002c0: 29e6 143b a607 48bc 32ca c73d 2fc0 bb3c
000002d0: 6a89 643c b42c 263d 1862 c9bc f930 d7bd
000002e0: 5174 39bd 4aa3 b0bc f929 e4bd b56b 5fbd
000002f0: cc96 f5bd 2334 35bd 280d 6a3d d212 5a3d
00000300: 68d5 28bc 7f2f 233d e037 d8bc 7a72 c6bd
00000310: 30c2 6a3d 3503 493d 728b de3d 22d5 863d
00000320: 57f9 f63c 883c bebd 32a2 94bd 6949 9fbd
00000330: 5bb5 59be 858b 78be 44da 26be b114 6a3d
00000340: 91cd 48bd 8b49 bf3c 4c52 e93c 151b 2abd
00000350: 3ca0 6d3c 8c8b 67bd a19a 42bc d2ab 36bd
00000360: b208 123d a505 35ba 76d8 51bd 59b5 183d
00000370: 11e5 17bd 3206 dcbc b831 a7bd 8cfb ddbc
00000380: 3833 b33c 7e10 f63d 7af6 b53d ba61 d23b
00000390: dcb4 d83d 46f2 37bc 4c60 e7bc a67a 1fbd
000003a0: 37ec 07bc 106a c43c 230e dfbd ae08 00bd
000003b0: caed 87bd 78e5 d8bd a124 9bbc 812b 093c
000003c0: b03c 6cbc c7cd 06bd 055c 1cbc e67c 4f3d
000003d0: 0f6d 863c 814a c8bd f28c 8fbd b10d 333d
000003e0: f0c0 7cbc 79ab 03be 1282 a7bc 77b0 52bd
000003f0: f047 113e f3fc a23d 1110 fb3b 49c1 d1bc
0.00497816 0.047658153 0.041033138 0.0042899502 -0.028850334 0.046375815 -0.1689915 -0.08750532
-0.04093433 0.031030087 0.05037683 0.043318383 -0.045658533 -0.083348155 0.051316142 0.082596034
0.073582776 -0.060699224 -0.05323824 -0.0817987 -0.0703171 -0.06313734 -0.12560393 -0.10739926
-0.025042789 0.10280634 0.15704949 -0.044041324 0.06672552 0.03781109 -0.055528194 -0.029001594
0.08831608 0.01630274 -0.10893209 -0.06696081 -0.039418217 -0.009394757 -0.090598576 0.0634349
0.02734024 -0.04974157 -0.05135615 0.00022205774 -0.057344906 -0.00088362984 -0.013518876 0.12133669
0.021832766 0.08362899 0.07894597 -0.03587562 -0.13753259 -0.07765536 -0.1266692 0.06250123
0.064871214 0.049623117 -0.040727172 0.05793991 0.022895077 0.043850645 0.010963954 0.037000824
-0.022094805 -0.08599811 -0.0062217955 0.053237442 0.017070558 -0.08550236 -0.04423211 0.010217014
-0.06271769 -0.06949077 -0.10348809 -0.061276086 0.0034869113 0.04519855 -0.08082255 0.016326323
-0.0243153 -0.13319732 0.019098716 0.04792458 -0.040316507 0.097136535 0.15751447 0.058859464
-0.117688924 -0.06785174 -0.07144087 -0.042543106 -0.0674354 0.02110249 -0.08019104 -0.035707798
-0.043381453 -0.008166233 -0.07183763 -0.18598305 -0.11430721 -0.09169546 -0.08812881 -0.075689256
-0.06516552 -0.018670646 0.036172792 -0.06860549 -0.049072094 0.035510454 0.02097437 -0.07643665
-0.103830546 0.020107908 0.13383624 0.08505989 0.12766376 0.00931447 0.07901984 -0.04265961
-0.052147742 0.07207852 0.074752554 -0.083422594 -0.014622596 0.02984246 -0.09397065 -0.15118678
-0.022441683 -0.044683658 -0.13904223 -0.04750069 -0.07746475 -0.08020251 -0.06807934 -0.0009028305
0.10440677 0.11773135 0.045309473 -0.075921 0.10195817 -0.0862809 -0.085952945 -0.061122738
-0.071376674 0.11925424 0.063363425 -0.12897956 0.00058041065 0.041292906 -0.067724384 0.033146728
-0.010963054 -0.07849522 -0.043460753 -0.0937304 -0.104273416 0.0045820368 0.06845698 -0.035789546
0.029959466 -0.07758017 0.012197245 -0.031037949 0.015081125 0.00024410395 0.00309328 -0.011799475
0.050945234 -0.10446108 -0.10859472 -0.034345217 0.015223404 -0.011453043 -0.080246106 -0.035784308
0.0022720194 -0.012208855 0.097553626 0.022918789 0.013948778 0.040569976 -0.024582908 -0.10507388
-0.045276944 -0.021562237 -0.11140818 -0.054546077 -0.11991653 -0.044239175 0.057141453 0.053240605
-0.010304786 0.039840218 -0.02639383 -0.096898034 0.057314098 0.049075324 0.10866441 0.065836206
0.030148191 -0.09288889 -0.07257499 -0.07777674 -0.21260588 -0.24271972 -0.16294199 0.05714864
-0.04902417 0.023350498 0.028481625 -0.041529734 0.014503535 -0.056529567 -0.011877687 -0.044597454
0.035652824 -0.0006905443 -0.051231824 0.03728232 -0.03708369 -0.026858423 -0.0816378 -0.027097486
0.021875009 0.120148644 0.08884902 0.0064203413 0.10581371 -0.011227196 -0.02824416 -0.038935326
-0.008296064 0.023976356 -0.10891368 -0.031258278 -0.066371515 -0.10590643 -0.018938364 0.008372189
-0.014418766 -0.03291109 -0.009543424 0.05065622 0.016409425 -0.097798355 -0.07009305 0.04371423
-0.015426859 -0.1285838 -0.020447765 -0.05143782 0.14187598 0.079584025 0.0076618274 -0.02560486

conv2.bias f4 [32]
00000000: 1352 b8bd c6ba 1cbe e3db c3bd 211c 45be
00000010: f69d 993d fdeb 8fbe cc42 12be 765f 24bc
00000020: 3c8c 1d3d 50a6 89be fb09 33be e251 4ebe
00000030: 5307 4ebe 3096 18be 77bf 04be 3273 33be
00000040: 61a5 4abd 6e68 2bbe de3c 3fbe 04fe e6bb
00000050: fbf2 44be 8ade 59be 649a ebbb 9b78 cfbd
00000060: fa51 eebd 82b2 aabd 5614 94be b01a 7bbe
00000070: 52c0 68bd f764 293e 6c7e efbd 4b16 aabd
-0.090000294 -0.15305623 -0.095634244 -0.19249012 0.07500832 -0.28109732 -0.14283293 -0.010032525
0.038463816 -0.268847 -0.17484276 -0.20148423 -0.20119981 -0.14901042 -0.12963663 -0.17524412
-0.049474124 -0.16739056 -0.18675563 -0.007049324 -0.19233315 -0.21276298 -0.0071900357 -0.101304255
-0.116367295 -0.08334829 -0.28921765 -0.24521899 -0.056824036 0.16542421 -0.11694035 -0.08305033

batch_norm2.weight f4 [32]
00000000: 2b0b 803f 93ca 8d3f 63fb 483f 6365 7f3f
00000010: 5f7b 733f b323 843f a892 803f 1216 8d3f
00000020: a610 6a3f 942c 813f c3eb 743f 98fd 853f
00000030: 9a35 7e3f 3270 843f 0b46 633f 9aac 843f
00000040: b939 8a3f df01 7b3f 40ac 783f 0074 803f
00000050: 7347 7a3f e6b4 8a3f 9c45 8b3f fad7 7e3f
00000060: 3e12 723f 2779 5f3f 035b 713f 8007 6c3f
00000070: 8573 503f ba93 5f3f b187 813f 3a1a 373f
1.0003408 1.1077446 0.78508586 0.9976408 0.95110124 1.0323395 1.0044756 1.102236
0.91431653 1.0091729 0.95672244 1.0468016 0.9930054 1.0346739 0.8877875 1.0365174
1.0798866 0.9804973 0.9713783 1.00354 0.9776527 1.0836456 1.0880618 0.99548304
0.94559085 0.8729424 0.942795 0.92198944 0.8142627 0.8733479 1.0119535 0.71524394

batch_norm2.bias f4 [32]
00000000: 40d7 ff3d 7714 aeba 9284 4d3e d3b6 443a
00000010: b4b8 87bd 5e79 1fbe 81fb 8a3d 0ad8 803d
00000020: a50a f23d 63dc ba3c a1ff 563e 9670 21be
00000030: 9970 4f3e 1268 a83e 1262 623e 89f8 33be
00000040: 2bc6 ecbd 2045 d43d b0b7 033e 3df4 d83a
00000050: ab21 4f3c 351d 04be 89f8 3cbe 7c6b bc3d
00000060: 98de 863e 4fe0 5c3e 0807 043e 66fd 903e
00000070: 26b7 bd3e 031d 9d3e c29d f93d 66f9 7b3e
0.124922276 -0.0013281245 0.20070103 0.00075040496 -0.06627026 -0.15573642 0.06786252 0.06291206
0.118184365 0.022810167 0.20995952 -0.15765604 0.20257796 0.328919 0.22107723 -0.17575277
-0.11561235 0.10364747 0.1286304 0.0016552281 0.012642304 -0.12901767 -0.18454184 0.092001885
0.263417 0.21569942 0.12893307 0.28318328 0.37053794 0.30686197 0.12188293 0.24606857

batch_norm2.running_mean f4 [32]
00000000: 3379 0d3f c765 d73e 8b1f 0a3f 32b2 c53e
00000010: 5a15 403f 6151 c83e bf38 043f a19c 3c3f
00000020: f143 823f 5c47 c23e def1 ed3e 8201 b23e
00000030: f943 943e d1ec 6b3f a99f 453f 7389 ea3e
00000040: 8039 863e d6ba c33e e8cf e83e 0139 233f
00000050: 1a39 a23e babd ba3e 195e 2d3f f577 ab3e
00000060: 54a4 4a3f 1e6c f83e 2ea6 353f 3289 503e
00000070: f9bd 183f 7c92 733f 20f1 2f3f 5cb0 193f
0.5526306 0.42069837 0.5395438 0.38612515 0.7503258 0.39124587 0.5164909 0.73676497
1.0176984 0.37945068 0.46473593 0.34766775 0.2895811 0.9215823 0.7719675 0.4580799
0.26215744 0.38228482 0.4547112 0.63758856 0.3168419 0.36472875 0.67721707 0.33489957
0.79156995 0.48519987 0.70956695 0.20364836 0.59664875 0.9514539 0.687273 0.6003473

batch_norm2.running_var f4 [32]
00000000: 06f4 ec3e 7114 ae3e 32f5 f83f d820 963f
00000010: 7eeb 7d3f f2d0 cc3e 2767 893f 610b 693f
00000020: 9de7 a93f de5e 133f 7188 8e3f fa3a 083f
00000030: db47 283f 2e95 493f 4a86 9e3f e953 733f
00000040: cd63 6f3e b1e4 9b3f 2b25 833f 9028 703f
00000050: 2369 b23e 0bd4 253f 4e75 ce3e 81b6 903e
00000060: e583 e13f 7eb3 ba3e 2904 1940 6876 a03e
00000070: 74b3 dd3f 5732 0d3f 07da d23f bb1e b73f
0.46279925 0.3399997 1.9449828 1.1728773 0.9918746 0.40003163 1.0734605 0.9103299
1.3273808 0.5756663 1.1135389 0.5321499 0.6573464 0.78743255 1.2384732 0.9504991
0.23377915 1.2179166 1.0245718 0.93811893 0.34845838 0.64776677 0.4032387 0.2826424
1.7618376 0.36465067 2.390879 0.31340337 1.732039 0.5515494 1.6472787 1.4306253

conv3.weight f4 [64, 32, 3, 3]
00000000: 58e7 81bd d2a8 a7bc 9db6 f1bd fbee 3b3c
00000010: e0d0 3c3d b5be 31bd 837a 683d 0b26 db3d
00000020: 9b4d 1f3d 8d6b a33d 37ae 2a3b 6091 e73c
00000030: 01d0 e43d 3dad d33d ddd4 683d 6eb0 8ebd
00000040: 5105 c03b 8550 efbc 54fe 8dbd a814 35bd
00000050: 7f5e 04bd 6856 c3bd 11f6 703d 24f1 823d
00000060: b666 8ebd 2c5e 58bd 1a3e a93c cd29 1dbc
00000070: 3f30 2f3d 9e2d 9e3c cd56 5f3d 7dc3 ec3d
00000080: b687 57bc f6d0 4ebd e1bd 87bc d6e7 d8bc
00000090: d978 ad3c 52c4 7a3c b0b8 5bbd 0723 16bd
000000a0: a2ba 833c baa3 b23d 58eb ecbb 5655 943d
000000b0: 4e5d f83d 0024 4a3c 119a 3c3d d8c7 cf3c
000000c0: bb33 f33d e6d4 083e a78c 3d3d 888f d53d
000000d0: 5d3f 623d 612f 8bbc 7f52 8d3d 689d b03d
000000e0: e4a4 113d b422 8f3b df42 abbc ef7b 8a3b
000000f0: 97f9 abbd 2f37 81bd d4f7 91bb 519b 313d
00000100: 3e28 223d 226f a63d 5631 33bd d027 c83a
00000110: 8cac 33bd 0f43 cbbd 84fe 20bd d77a 5dbd
00000120: 4393 c33b c0ec 363d 1f23 89bd 54a1 a33c
00000130: 4fef 2c3d c551 693c 245b 533d f328 af3c
00000140: 2cdc 99bd b88e a53d b394 273d 15e0 c8bc
00000150: 830a 633c 3974 063d 1370 0bbd 7564 81bd
00000160: c65b f8bc bf6a b4bd d67d b5bd c58f b4bd
00000170: 138e f8bc 5ed0 4cbd 32f0 373d b1d6 833c
00000180: ecab 7abd 7845 283d 6e53 cebd f67d d9bd
00000190: 931b 0abd dbe9 01be 6c4f 443d 2409 ae3c
000001a0: fabf 9fbd 7890 db3d 2ad1 d63d 39f5 5e3d
000001b0: 2b1b b03c 010c 8d3d bac7 11bd 3e95 2dbc
000001c0: 6a62 c33d 98a5 0b3b 0b60 01be f3c5 97bc
000001d0: 711b 2ebc 4862 0ebe 1f34 bdbd 9527 babd
000001e0: be26 09bd 7109 9f3c 1ce7 a7bc 1f50 2bbc
000001f0: 8eaf dbbc 65b2 b6bc 0bec d2bd 5338 6ebd
00000200: c679 743b 2542 11bd eafa 06bc 09bb 763d
00000210: a648 b9bd b5c0 18be 400b 06bd 66b0 323d
00000220: c862 1c3e 7fcc e53c 1faa a63d 7537 063e
00000230: cfae 70bd dd58 25bd 2f7e cf3d c77f 5dbc
00000240: 3d08 073d f6d8 8d3d bd8c 863c 06c1 ce3b
00000250: 4041 cc3d ca6e f6bc 8291 db3b 92ed 893d
00000260: 3c84 783d 2581 423d 4365 60bd 95ed fdbc
00000270: 7fd1 443c 8651 413d 3989 55bd d5b0 54bc
00000280: 1b53 97bd 69c6 e8bb acc0 9d3c 3a66 833c
00000290: 7474 45bd fe2b 723b 9f25 dd3a 4561 5fbd
000002a0: 600a 2d3d d4fd 073d 670e 6f3d 8a75 53bc
000002b0: e994 503d dbb2 1abd ae8d dc3c 0261 093d
000002c0: 5852 d4bc c9d9 afbd 27e7 e8bc 3b2c f63c
000002d0: ba29 4d3d 917f b1bc 135c 0f3d d231 913b
000002e0: ef58 40bc 2fbb d13d aba6 c43d f169 1c3d
000002f0: 0740 713d 5ace 8ebc e58d 99bb 0eee dd3c
00000300: 95aa 44bd 3b57 bd3c 192f d3bd 6bf9 d53c
00000310: 2ca1 d13d 452a f83b 5e9c 8dbd b71f a7bd
00000320: c246 babc 0cf8 933d 39f0 803d 50f8 8cbc
00000330: e163 bf3d 768a 103d dd11 b93d f478 bdbd
00000340: bc36 9fbd 92f5 a43c dbf0 7abd 2f9a 81bd
00000350: afa1 9dbc 7c88 2dbc 54cd b03c 7988 5a3d
00000360: f1fc ae3c b6b1 623c e00f 263a 1662 67bd
00000370: 8b73 ce3c be4f ef3c b994 7dbd 6c8a 82bd
00000380: 5574 85bd b547 a6bc f229 9b3c 5582 233d
00000390: f2b6 28bd a022 82bd 5ccd afbd 0bd0 363d
000003a0: b2a5 803d aa14 4ebc d857 99bd a626 a2bd
000003b0: d8f8 16bb dd08 153d 8fb0 2bbd fa70 1b3a
000003c0: d601 c7bd 48eb a3bd 2e98 89bd b965 9c3c
000003d0: 8949 8fbc 9bcb d13c 6787 08be ed15 bbbd
000003e0: c42b 323d ca70 c6bd b952 0abe c550 983c
000003f0: c559 36bd 8ad5 53ba c2c7 663c 5a9e f4bc
-0.063429534 -0.020466242 -0.11802409 0.011470552 0.046097636 -0.043394763 0.05675746 0.107006155
0.03889237 0.07979498 0.0026043782 0.028267562 0.11172486 0.10335777 0.056843627 -0.06967245
0.0058600088 -0.0292132 -0.06933275 -0.044209152 -0.03231668 -0.09537965 0.058828417 0.0639365
-0.06953184 -0.052824184 0.020659495 -0.009592486 0.04277062 0.019308861 0.05452614 0.11560724
-0.013154915 -0.05049225 -0.016570034 -0.026477735 0.021175789 0.0153055955 -0.05364293 -0.0366545
0.016080204 0.087226346 -0.0072302036 0.07242839 0.121271715 0.012337685 0.046045367 0.025363848
0.11875101 0.13362464 0.046276715 0.10427767 0.05523621 -0.016990365 0.069005005 0.08623773
0.035557643 0.0043681506 -0.02090591 0.0042262 -0.08397215 -0.063093536 -0.0044545922 0.043361012
0.03958916 0.08126666 -0.043748222 0.0015270654 -0.043865725 -0.099249 -0.039305225 -0.054072227
0.0059684827 0.044659376 -0.06696152 0.019974388 0.04222041 0.014240687 0.05160059 0.02138183
-0.075126976 0.08083862 0.040913295 -0.024520913 0.013857487 0.032825682 -0.03404243 -0.06317989
-0.030317198 -0.08809423 -0.08861892 -0.08816484 -0.030341184 -0.050003402 0.044906802 0.016093584
-0.061199114 0.041081876 -0.10074507 -0.10619728 -0.033717703 -0.12686865 0.047927305 0.021244593
-0.078002885 0.107209146 0.10489114 0.05443308 0.02149733 0.06887055 -0.035590865 -0.010594664
0.09540255 0.0021308418 -0.12634294 -0.018527007 -0.01062666 -0.13904679 -0.09238457 -0.09089581
-0.033484213 0.019413682 -0.020495944 -0.010456114 -0.02681711 -0.022301862 -0.10298928 -0.058159184
0.0037304028 -0.03546347 -0.0082385335 0.060236964 -0.0904706 -0.14917262 -0.032725573 0.043625258
0.15272057 0.028051613 0.08137917 0.13107093 -0.05876046 -0.04036795 0.101314895 -0.013519234
0.03296684 0.06926148 0.016424531 0.0063096313 0.09973383 -0.030082125 0.0067006955 0.06734766
0.060672984 0.047486443 -0.05478407 -0.030997077 0.012012838 0.047196887 -0.05213282 -0.012981613
-0.07388898 -0.0071037305 0.019256912 0.016039956 -0.04820676 0.003695249 0.0016872174 -0.054536123
0.042246222 0.033201054 0.058363345 -0.012906441 0.05092326 -0.037768226 0.026923027 0.03353978
-0.02591817 -0.08586461 -0.028430535 0.030050388 0.05008862 -0.021667274 0.03499992 0.004430988
-0.011739953 0.102407806 0.09602102 0.03818697 0.05889895 -0.01743238 -0.0046861046 0.027091052
-0.048014242 0.023112884 -0.103117175 0.026119908 0.10235819 0.0075733983 -0.0691459 -0.08160346
-0.022738818 0.072250456 0.06295819 -0.017208248 0.09345222 0.035288297 0.0903661 -0.092515856
-0.07774112 0.020136628 -0.061264854 -0.06328236 -0.019242136 -0.010591622 0.021582283 0.053352807
0.021360846 0.013836315 0.0006334763 -0.056490026 0.02520158 0.029212829 -0.06190941 -0.06374058
-0.06516329 -0.020297864 0.0189409 0.039919216 -0.041190095 -0.063542604 -0.08584091 0.044632
0.06281604 -0.012578169 -0.07487458 -0.07917528 -0.0023036506 0.036385406 -0.041916426 0.00059296156
-0.09717147 -0.08003861 -0.06718479 0.019091474 -0.017491119 0.025609782 -0.13332902 -0.091350414
0.04349877 -0.096894816 -0.13508119 0.018593201 -0.044519205 -0.0008080831 0.014085712 -0.029860664

conv3.bias f4 [64]
00000000: 4fcc 36be 21f8 17be 7b9a 18bd 2801 10be
00000010: 9719 24be 7f26 d8bd 573e 3fbe b0be f8bd
00000020: 9bc1 14be f3d3 13be 3d9e c9bd e84b 5ebe
00000030: cd04 3cbe 727a 20be 3d67 b5be 0639 f2bc
00000040: 47d8 f6bd 5222 babd 10ba 14be e4f7 20be
00000050: 7422 2bbd edda 0bbd 829c 25be d947 31bd
00000060: 49e5 f0bd c79c 14be fd50 78be 042f 4abe
00000070: bdc2 58be 9c8b babd 22fc 92bd 67ae 4dbe
00000080: 2c51 95bd 5531 29be f479 ecbd 236e 90be
00000090: 01a5 52be 80a0 3bbe 0689 75bd 1605 10bc
000000a0: 0917 85be 1355 483b fb33 73bd 593f 91be
000000b0: f4fe 0ebe fab8 10bd 24be 77be 2f16 73be
000000c0: ae0f 04be 633b 7bbe 5f50 8dbd 6bac 8ebe
000000d0: 173e 17be 574e 21be eedf 60be 6fbc 42be
000000e0: 0736 6dbe beb6 83be 6c02 e4bd 4ed0 5bbe
000000f0: 758c 03be 265b 64be 1b32 1abd 3b76 3fbe
-0.17851375 -0.14840747 -0.0372567 -0.14062941 -0.16025387 -0.105542175 -0.18676125 -0.12145746
-0.1452698 -0.14436321 -0.09844635 -0.21708643 -0.18361206 -0.15671709 -0.35430327 -0.029568207
-0.120529704 -0.09088577 -0.14524102 -0.15719563 -0.041780904 -0.03414433 -0.16172984 -0.04328141
-0.11762483 -0.14512931 -0.24249645 -0.19744498 -0.21168037 -0.091086596 -0.07176997 -0.2008606
-0.07290873 -0.16522725 -0.11546698 -0.28209028 -0.20570756 -0.18322945 -0.05994513 -0.008790275
-0.25994137 0.0030568286 -0.059375744 -0.28368643 -0.13964444 -0.035332657 -0.24193627 -0.23738931
-0.12896606 -0.24534373 -0.06900095 -0.2786592 -0.14769779 -0.1575254 -0.21960422 -0.19017194
-0.23165141 -0.2572536 -0.111332744 -0.2146618 -0.12846549 -0.22300395 -0.03764544 -0.18697445

batch_norm3.weight f4 [64]
00000000: 6b82 cb3f 7503 ad3f 49bf af3f 806d 9f3f
00000010: d187 d03f 3259 a93f 0d28 cc3f 4ed6 ae3f
00000020: 589c ae3f 7dd2 b03f 1326 ba3f 8649 cd3f
00000030: c152 c53f d816 aa3f 4d36 d33f 468a ad3f
00000040: 5fc2 b93f 48dc be3f 91c1 b63f 213e c03f
00000050: 03d5 b23f 4941 a33f 4886 ba3f fb87 b43f
00000060: 896a ba3f ff4f c93f b65f cd3f a63b c83f
00000070: 5fb1 ca3f 30d5 bc3f abd7 b83f 9c84 be3f
00000080: aecb be3f 2f23 a23f 1ec0 be3f ee2b ba3f
00000090: fa28 b73f 6d5a bf3f d31c b73f 9348 b93f
000000a0: fad7 c23f b3fa 9d3f 6ad8 b43f f4d1 a53f
000000b0: 0f85 b83f 842d b43f 6d7c c83f 10bf db3f
000000c0: b394 a23f 5753 b83f ae45 b83f f868 cb3f
000000d0: 6564 b03f 888d b93f 9e71 b03f c9de ac3f
000000e0: 9f07 d13f 2472 b33f db76 c63f 12b4 b83f
000000f0: 80c3 bc3f a782 b73f 90d7 b73f 7ce3 b83f
1.5899175 1.351668 1.3730251 1.2455292 1.6291448 1.3230345 1.5949723 1.3659151
1.3641462 1.3814236 1.4542869 1.6038063 1.541588 1.3288221 1.6500946 1.3557823
1.4512442 1.4910975 1.4277822 1.501896 1.3971256 1.2754298 1.4572229 1.4103998
1.4563762 1.5727538 1.6044834 1.5643203 1.5835379 1.475256 1.4440817 1.4884219
1.4905908 1.2666987 1.490238 1.4544656 1.430938 1.4949471 1.4305671 1.4475273
1.5222161 1.2342132 1.4128544 1.2954698 1.4415606 1.407639 1.5662972 1.7167683
1.2701629 1.4400433 1.4396265 1.5891409 1.3780638 1.4496317 1.3784673 1.3505489
1.6330451 1.4019208 1.5505022 1.4429953 1.4747162 1.4336747 1.436266 1.4444423

batch_norm3.bias f4 [64]
00000000: 238b 653d 0e20 c43d 014e b13d 2820 1fbe
00000010: 8eea 753d 7f17 e23d 502e eb3c b7c3 b13d
00000020: 60bd 89bd b93d 0abe 5433 773d 765a 083e
00000030: 509a 143e 1b07 0ebe bcb3 c03d 0428 51bd
00000040: 8bca b93d 210c a33d b306 cfbd 690f 4f3d
00000050: dcf1 dabc 8f01 e4bd 454e dcbd 52b6 2e3d
00000060: b197 113e 73be ad3d 80fa 143e bd9f 8f3d
00000070: 03b7 223d 1422 163e 9928 08be 2ea0 02be
00000080: ca96 1d3d c1e3 19be d670 4fbc ec4c 24be
00000090: c47a fcbd a46a 293d db9f 1abd b199 e93c
000000a0: 420d e23d 66b7 153e cda6 2b3d 35cc 0f3e
000000b0: e05c f43c e98d 13bd 1ced 0d3e f819 ec3d
000000c0: ef6a e1bd 603c 20be dc3f 8ebd 9060 0a3e
000000d0: 0d22 74bc 0aae d9bd 671c 1dbe fd2b c43d
000000e0: dd6e 383d c22e 1abe 742c 78ba b340 f1bd
000000f0: 5a7f a03d 66e4 233d 8062 fcba ff78 ebbd
0.056040894 0.095764264 0.08657456 -0.1553961 0.060038142 0.11039638 0.028708607 0.08679908
-0.067255735 -0.13500108 0.060351685 0.13315758 0.1451199 -0.13869898 0.094092816 -0.051063552
0.09071835 0.07961298 -0.101087 0.050551806 -0.026726656 -0.1113311 -0.10757116 0.042654343
0.14218022 0.08483591 0.14548683 0.070128895 0.039725315 0.14661437 -0.13296737 -0.12756416
0.03847388 -0.15028287 -0.0126611795 -0.16044968 -0.12328103 0.041361466 -0.037750106 0.028515669
0.11037685 0.14620742 0.04190712 0.14042743 0.029829443 -0.036024008 0.13859981 0.11528391
-0.11006724 -0.15648031 -0.06945774 0.13513398 -0.014900696 -0.106288984 -0.15342866 0.095787026
0.045027602 -0.15056899 -0.0009467073 -0.117799185 0.078367904 0.04001274 -0.001925543 -0.114976875

batch_norm3.running_mean f4 [64]
00000000: b6cd 3d3f 5196 543f 1187 9e3f fba4 0c3f
00000010: 9b44 083f bf71 9a3f 1620 523f f837 413f
00000020: 3ef6 d43e b050 f53e 2a26 2a3f 85cf 0d3f
00000030: 1954 273f 4c52 443f 8769 cb3e 5e27 743f
00000040: 65a0 0d3f c229 2f3f 5e3e 0d3f d166 523f
00000050: 593a 313f fa63 333f 3df8 043f 06da 903f
00000060: ad72 663f 8530 503f 8651 0f3f fee1 db3e
00000070: 6e6d 1d3f 8700 673f 9282 2c3f d810 7a3f
00000080: 372f 303f 6521 de3e c472 473f 6074 243f
00000090: 16cc 223f d4eb 013f 7aed 983f e611 563f
000000a0: 0dab e93e dd5e 233f 3ba1 593f 0809 403f
000000b0: 789d 173f d93d 843f d22c b43e c467 0f3f
000000c0: 4c05 3a3f 2a7b 313f 203b 973f bff2 353f
000000d0: 90ae 773f c3de b73e 28b5 3f3f 19f0 2d3f
000000e0: 3bd8 f43e ed0f 123f 7377 1d3f c133 313f
000000f0: f440 623f 3a45 ca3e 792d 593f 69ec 0a3f
0.74142015 0.83041865 1.2384969 0.5493924 0.53229684 1.2065963 0.8208021 0.75476027
0.41594118 0.47913122 0.66464484 0.55394775 0.653627 0.76688075 0.39728948 0.9537257
0.5532287 0.6842309 0.5517329 0.82188135 0.69229656 0.7007443 0.5194128 1.1316535
0.9001873 0.81324035 0.5598377 0.42945856 0.614951 0.9023518 0.67386734 0.9768195
0.68822044 0.43384853 0.77909493 0.64240074 0.6359266 0.5075047 1.1947472 0.8362106
0.45638314 0.63816625 0.85011643 0.7501378 0.59224653 1.0331374 0.35190445 0.5601771
0.7266433 0.6932856 1.1814919 0.71073526 0.96750736 0.3591214 0.748858 0.67944485
0.4782122 0.5705555 0.6151039 0.69219595 0.8838036 0.3950594 0.8483501 0.54266983

batch_norm3.running_var f4 [64]
00000000: 7db0 2940 ab38 813f 3a3a 5e40 b28e 5d3f
00000010: 57bd c63f 3429 c33f 0ec7 5140 8ca5 023f
00000020: e0c9 8f3f 64e5 0e3f 97ed d33f be5f d43f
00000030: c0c9 553f 962d a03f 888c 493f fe50 9840
00000040: 5850 153f 5542 0a3f 29aa 223f 2b0d 5540
00000050: 8ece 1040 16c9 2c3f 8401 003f c969 c540
00000060: 7fa5 483f 3550 2c40 a97a a83f 675d 543f
00000070: 605c ea3f 3241 c23f eb52 283f 7125 953f
00000080: 2fb3 0840 7745 d73e 75ac 2e40 48a4 3f3f
00000090: 0595 703f 6536 cd3f f437 ac40 e66e 3240
000000a0: 0bbf 943f 4724 e73e 13a4 2740 28e5 f23e
000000b0: 1429 c53f 1185 8440 3f1b 9a3e 3374 d33f
000000c0: 21fc 773f ee2f 6f3f 0de9 7140 6000 2640
000000d0: 1e20 9640 b4ac c13e b475 633f 5b3a a33f
000000e0: d744 b53f 8221 2e3f a316 0140 e09c 9a3f
000000f0: 904e e83f 91cd 703f 0452 4940 cb22 163f
2.651397 1.0095419 3.4723039 0.8654586 1.5526532 1.5246949 3.2777743 0.51033854
1.1233482 0.5581877 1.6556882 1.6591718 0.8351097 1.2513912 0.7873006 4.7598867
0.5832572 0.54007465 0.63540894 3.3289287 2.262607 0.6749433 0.5000231 6.169163
0.78377527 2.6923954 1.3162433 0.8295502 1.8309441 1.5176146 0.6575152 1.1652051
2.1359365 0.42045185 2.729276 0.7486005 0.93977386 1.6032225 5.38183 2.7880187
1.1620802 0.45144865 2.6193893 0.47440457 1.5403161 4.1412435 0.30098912 1.6519836
0.96869093 0.9343251 3.7798493 2.593773 4.6914206 0.37827075 0.88851476 1.2752184
1.4161633 0.6801988 2.0170066 1.2079124 1.8148975 0.9406367 3.1456308 0.5864684

fc.weight f4 [3, 64]
00000000: 0396 c4be d1fc 9a3e 7bae fb3e 7b75 80be
00000010: fe5f a8be 8d16 9d3e 02a8 c8be 2a03 b03e
00000020: 613a ee3e 8dc9 02bc fe81 103f d8b8 77be
00000030: b14e 1abe 7b7e d4be daa0 7bbe cdd6 d03e
00000040: 2bfc f43e 7065 9c3e 7601 d5be ee36 a9be
00000050: 95c0 f23e f307 4c3e ae6c b3be 2c68 d93e
00000060: aa8a 92bd 4431 f63e d562 48be 056c 163f
00000070: ea88 b8be 1423 5ebd 716e 013c 7f18 cbbe
00000080: 6d1f c43e a89f c7bd fd3f e3be a0bc 94be
00000090: 7330 dfbe 996f b3be 91a0 e4be cdfd 053f
000000a0: c232 b8be f271 743e d625 003f 3648 843e
000000b0: 1f27 173f 18e3 cabe 420e 82bd 1964 acbe
000000c0: 83e3 193e 78f6 85be b9da 01bf b347 99be
000000d0: f0c9 f13e 8745 8dbe 82b0 56be 861f e93e
000000e0: 13af d4be 3432 cabd 7d7d f73e a199 96be
000000f0: 90ab 083f ce59 033f d5b4 163f 9a4a c2be
00000100: b8ff 293f 3caf c93a f1df 58bd 815c 81be
00000110: 977b 2b3f fdb0 f33d 7241 f13e ff85 a7bb
00000120: bcff 81be 7422 b7be dc4f 72be 0c61 273f
00000130: 6952 fa3e 8d04 55be a275 0c3f 04b7 33be
00000140: c486 79bd aa29 e6bd e025 7cba 5402 133f
00000150: 77e2 69be ca60 afbe 0458 133d 27f6 84be
00000160: 3e09 053f 0fd1 16be db79 0a3f eccd e8bd
00000170: da74 fb3e 0a1a 033f 5c18 f0be b072 2ebe
00000180: adf4 8cbe fe8e b2be a6a9 b13e 67ef c0be
00000190: b29d a8bd ea74 113f f039 8e3e 9f1e 64be
000001a0: f847 163f 07f6 713e 5c8e 61be 2cd2 833e
000001b0: 7ff3 14be 7ad2 b83e 00e5 1d3f 6f1c 263f
000001c0: 3a70 96be 4028 acbe e4ce 243e 63e4 fd3e
000001d0: 5d80 a4be a093 8c3d 62ec 6dbe 4932 2b3b
000001e0: 07c4 da3e 9510 d7be 1700 65be 65ce cebd
000001f0: ca74 163d bf5a 83be 0ce7 95be 5c0d a1bd
00000200: 07d3 6bbe 4a9a 97be 68fa 40be 1ad7 6d3e
00000210: 482e 46be 5bc1 96be c068 41be ebf3 8cbe
00000220: 6fd4 7d3d 53b0 ff3e f1bf 86be 2d29 b7be
00000230: d9bb 03bf 64dd d93e d28f bdbe 328d 363b
00000240: d69f 4fbe 791b 94be b8ce c83e 4c2c 24be
00000250: c973 8d3d a7b1 9a3e 1284 d13e 42e8 43be
00000260: 12eb f9be eea2 46be c783 d4be 92e1 12be
00000270: 7878 23be c6d4 a9be 03a8 013f 3527 0a3f
00000280: 00c1 09be 225b 933e 1d6f 22bd 79a0 e93e
00000290: e86f f23e 4740 24be 47d8 8a3d fb13 04be
000002a0: a828 b5be 58a8 90be 84e1 3cbe 6ee9 94be
000002b0: 11df f2bc 39c0 0f3e b2a7 10bf a495 a7be
000002c0: f572 933e 2c7b 023f 5660 2d3e 411b d5be
000002d0: 770c 8ebd 6f10 da3e 1f30 003f a724 59be
000002e0: 95c6 a0be 8ecb 043f b4e6 b3bd 6f70 fb3e
000002f0: 2d2b fbbd e53d 39be 18f2 66bd e3dd d53e
-0.383957 0.3027101 0.49156556 -0.2508963 -0.32885736 0.30681267 -0.3919068 0.34377414
0.46528915 -0.007982624 0.5644835 -0.24191606 -0.15069081 -0.41502747 -0.24573079 0.4078888
0.4784864 0.3054614 -0.41602677 -0.3304972 0.47412553 0.19924907 -0.35043854 0.4246229
-0.07155354 0.48084462 -0.19568951 0.58758575 -0.36041957 -0.05423267 0.007899866 -0.39667127
0.38305226 -0.09747249 -0.44384757 -0.2905016 -0.4359165 -0.3504608 -0.44653752 0.52340394
-0.35976225 0.23871592 0.50057733 0.25836343 0.5904407 -0.39626384 -0.06350376 -0.33670118
0.15028195 -0.26164603 -0.5072437 -0.29937515 0.4722438 -0.27592108 -0.2096577 0.45531863
-0.4153982 -0.09872857 0.48337927 -0.29414085 0.53386784 0.51308906 0.5886968 -0.3794754
0.6640582 0.0015387307 -0.052947942 -0.25265887 0.6698546 0.11898992 0.47120243 -0.005112409
-0.25390422 -0.35768473 -0.23663276 0.65382457 0.48891 -0.20802517 0.54866993 -0.17550284
-0.06091954 -0.112384155 -0.0009618681 0.5742543 -0.22840296 -0.34253532 0.03597261 -0.2596905
0.5196723 -0.14728187 0.54092187 -0.113674015 0.49112588 0.5121161 -0.46893585 -0.17035937
-0.27530423 -0.3487472 0.34699744 -0.3768265 -0.08233203 0.5681902 0.27778578 -0.22277306
0.58703566 0.23629008 -0.22026962 0.25746286 -0.14546011 0.3609808 0.6167755 0.64887136
-0.29382497 -0.33624458 0.16094548 0.49588308 -0.32129183 0.06864095 -0.23234704 0.0026122502
0.42727682 -0.4200484 -0.22363316 -0.100979604 0.036732472 -0.2565517 -0.29277837 -0.07863876
-0.2302972 -0.296099 -0.18845522 0.23226586 -0.19353592 -0.29444394 -0.18887615 -0.27529845
0.06197017 0.49939212 -0.26318315 -0.35773602 -0.5145851 0.4255172 -0.3702379 0.0027855155
-0.20275816 -0.2892721 0.39220214 -0.16032523 0.0690685 0.30213663 0.40921074 -0.19131568
-0.48812157 -0.1939809 -0.41506788 -0.14343861 -0.15963924 -0.33170146 0.5064699 0.53966075
-0.1345253 0.28780466 -0.039656747 0.45630243 0.47351003 -0.16040145 0.06779533 -0.12898247
-0.3538258 -0.28253436 -0.18445402 -0.29084343 -0.029647382 0.14038171 -0.5650588 -0.32731354
0.28798643 0.50969195 0.1693128 -0.41622356 -0.06935971 0.42590663 0.50073427 -0.21205388
-0.31401506 0.518731 -0.087842375 0.49109218 -0.122640945 -0.18090017 -0.056383222 0.4177085

fc.bias f4 [3]
00000000: 8eb0 1f3d b44d 553e 353e 08be
0.038986735 0.20830423 -0.1330498
